{
    "modelTopology": {
        "training_config": {
            "metrics": [
                "accuracy"
            ],
            "loss": "weighted_loss",
            "optimizer_config": {
                "class_name": "Adam",
                "config": {
                    "beta_1": 0.8999999761581421,
                    "beta_2": 0.9990000128746033,
                    "decay": 0.0,
                    "epsilon": 1e-07,
                    "amsgrad": false,
                    "lr": 2.9999999242136255e-05
                }
            },
            "sample_weight_mode": null,
            "loss_weights": null
        },
        "keras_version": "2.2.0",
        "model_config": {
            "class_name": "Model",
            "config": {
                "layers": [
                    {
                        "class_name": "InputLayer",
                        "inbound_nodes": [],
                        "config": {
                            "dtype": "float32",
                            "batch_input_shape": [
                                null,
                                224,
                                224,
                                3
                            ],
                            "name": "input_1",
                            "sparse": false
                        },
                        "name": "input_1"
                    },
                    {
                        "class_name": "Conv2D",
                        "inbound_nodes": [
                            [
                                [
                                    "input_1",
                                    0,
                                    0,
                                    {}
                                ]
                            ]
                        ],
                        "config": {
                            "kernel_initializer": {
                                "class_name": "VarianceScaling",
                                "config": {
                                    "distribution": "uniform",
                                    "scale": 1.0,
                                    "seed": null,
                                    "mode": "fan_avg"
                                }
                            },
                            "name": "Conv1",
                            "kernel_constraint": null,
                            "bias_regularizer": null,
                            "bias_constraint": null,
                            "activation": "linear",
                            "trainable": true,
                            "data_format": "channels_last",
                            "padding": "same",
                            "strides": [
                                2,
                                2
                            ],
                            "dilation_rate": [
                                1,
                                1
                            ],
                            "kernel_regularizer": null,
                            "filters": 32,
                            "bias_initializer": {
                                "class_name": "Zeros",
                                "config": {}
                            },
                            "use_bias": false,
                            "activity_regularizer": null,
                            "kernel_size": [
                                3,
                                3
                            ]
                        },
                        "name": "Conv1"
                    },
                    {
                        "class_name": "BatchNormalization",
                        "inbound_nodes": [
                            [
                                [
                                    "Conv1",
                                    0,
                                    0,
                                    {}
                                ]
                            ]
                        ],
                        "config": {
                            "gamma_initializer": {
                                "class_name": "Ones",
                                "config": {}
                            },
                            "moving_mean_initializer": {
                                "class_name": "Zeros",
                                "config": {}
                            },
                            "name": "bn_Conv1",
                            "epsilon": 0.001,
                            "trainable": true,
                            "center": true,
                            "moving_variance_initializer": {
                                "class_name": "Ones",
                                "config": {}
                            },
                            "beta_initializer": {
                                "class_name": "Zeros",
                                "config": {}
                            },
                            "scale": true,
                            "gamma_regularizer": null,
                            "gamma_constraint": null,
                            "beta_constraint": null,
                            "beta_regularizer": null,
                            "momentum": 0.999,
                            "axis": -1
                        },
                        "name": "bn_Conv1"
                    },
                    {
                        "class_name": "Activation",
                        "inbound_nodes": [
                            [
                                [
                                    "bn_Conv1",
                                    0,
                                    0,
                                    {}
                                ]
                            ]
                        ],
                        "config": {
                            "activation": "relu6",
                            "trainable": true,
                            "name": "Conv1_relu"
                        },
                        "name": "Conv1_relu"
                    },
                    {
                        "class_name": "DepthwiseConv2D",
                        "inbound_nodes": [
                            [
                                [
                                    "Conv1_relu",
                                    0,
                                    0,
                                    {}
                                ]
                            ]
                        ],
                        "config": {
                            "padding": "same",
                            "depth_multiplier": 1,
                            "name": "expanded_conv_depthwise",
                            "bias_regularizer": null,
                            "bias_constraint": null,
                            "activation": "linear",
                            "trainable": true,
                            "data_format": "channels_last",
                            "depthwise_constraint": null,
                            "strides": [
                                1,
                                1
                            ],
                            "dilation_rate": [
                                1,
                                1
                            ],
                            "depthwise_initializer": {
                                "class_name": "VarianceScaling",
                                "config": {
                                    "distribution": "uniform",
                                    "scale": 1.0,
                                    "seed": null,
                                    "mode": "fan_avg"
                                }
                            },
                            "bias_initializer": {
                                "class_name": "Zeros",
                                "config": {}
                            },
                            "depthwise_regularizer": null,
                            "use_bias": false,
                            "activity_regularizer": null,
                            "kernel_size": [
                                3,
                                3
                            ]
                        },
                        "name": "expanded_conv_depthwise"
                    },
                    {
                        "class_name": "BatchNormalization",
                        "inbound_nodes": [
                            [
                                [
                                    "expanded_conv_depthwise",
                                    0,
                                    0,
                                    {}
                                ]
                            ]
                        ],
                        "config": {
                            "gamma_initializer": {
                                "class_name": "Ones",
                                "config": {}
                            },
                            "moving_mean_initializer": {
                                "class_name": "Zeros",
                                "config": {}
                            },
                            "name": "expanded_conv_depthwise_BN",
                            "epsilon": 0.001,
                            "trainable": true,
                            "center": true,
                            "moving_variance_initializer": {
                                "class_name": "Ones",
                                "config": {}
                            },
                            "beta_initializer": {
                                "class_name": "Zeros",
                                "config": {}
                            },
                            "scale": true,
                            "gamma_regularizer": null,
                            "gamma_constraint": null,
                            "beta_constraint": null,
                            "beta_regularizer": null,
                            "momentum": 0.999,
                            "axis": -1
                        },
                        "name": "expanded_conv_depthwise_BN"
                    },
                    {
                        "class_name": "Activation",
                        "inbound_nodes": [
                            [
                                [
                                    "expanded_conv_depthwise_BN",
                                    0,
                                    0,
                                    {}
                                ]
                            ]
                        ],
                        "config": {
                            "activation": "relu6",
                            "trainable": true,
                            "name": "expanded_conv_depthwise_relu"
                        },
                        "name": "expanded_conv_depthwise_relu"
                    },
                    {
                        "class_name": "Conv2D",
                        "inbound_nodes": [
                            [
                                [
                                    "expanded_conv_depthwise_relu",
                                    0,
                                    0,
                                    {}
                                ]
                            ]
                        ],
                        "config": {
                            "kernel_initializer": {
                                "class_name": "VarianceScaling",
                                "config": {
                                    "distribution": "uniform",
                                    "scale": 1.0,
                                    "seed": null,
                                    "mode": "fan_avg"
                                }
                            },
                            "name": "expanded_conv_project",
                            "kernel_constraint": null,
                            "bias_regularizer": null,
                            "bias_constraint": null,
                            "activation": "linear",
                            "trainable": true,
                            "data_format": "channels_last",
                            "padding": "same",
                            "strides": [
                                1,
                                1
                            ],
                            "dilation_rate": [
                                1,
                                1
                            ],
                            "kernel_regularizer": null,
                            "filters": 16,
                            "bias_initializer": {
                                "class_name": "Zeros",
                                "config": {}
                            },
                            "use_bias": false,
                            "activity_regularizer": null,
                            "kernel_size": [
                                1,
                                1
                            ]
                        },
                        "name": "expanded_conv_project"
                    },
                    {
                        "class_name": "BatchNormalization",
                        "inbound_nodes": [
                            [
                                [
                                    "expanded_conv_project",
                                    0,
                                    0,
                                    {}
                                ]
                            ]
                        ],
                        "config": {
                            "gamma_initializer": {
                                "class_name": "Ones",
                                "config": {}
                            },
                            "moving_mean_initializer": {
                                "class_name": "Zeros",
                                "config": {}
                            },
                            "name": "expanded_conv_project_BN",
                            "epsilon": 0.001,
                            "trainable": true,
                            "center": true,
                            "moving_variance_initializer": {
                                "class_name": "Ones",
                                "config": {}
                            },
                            "beta_initializer": {
                                "class_name": "Zeros",
                                "config": {}
                            },
                            "scale": true,
                            "gamma_regularizer": null,
                            "gamma_constraint": null,
                            "beta_constraint": null,
                            "beta_regularizer": null,
                            "momentum": 0.999,
                            "axis": -1
                        },
                        "name": "expanded_conv_project_BN"
                    },
                    {
                        "class_name": "Conv2D",
                        "inbound_nodes": [
                            [
                                [
                                    "expanded_conv_project_BN",
                                    0,
                                    0,
                                    {}
                                ]
                            ]
                        ],
                        "config": {
                            "kernel_initializer": {
                                "class_name": "VarianceScaling",
                                "config": {
                                    "distribution": "uniform",
                                    "scale": 1.0,
                                    "seed": null,
                                    "mode": "fan_avg"
                                }
                            },
                            "name": "block_1_expand",
                            "kernel_constraint": null,
                            "bias_regularizer": null,
                            "bias_constraint": null,
                            "activation": "linear",
                            "trainable": true,
                            "data_format": "channels_last",
                            "padding": "same",
                            "strides": [
                                1,
                                1
                            ],
                            "dilation_rate": [
                                1,
                                1
                            ],
                            "kernel_regularizer": null,
                            "filters": 96,
                            "bias_initializer": {
                                "class_name": "Zeros",
                                "config": {}
                            },
                            "use_bias": false,
                            "activity_regularizer": null,
                            "kernel_size": [
                                1,
                                1
                            ]
                        },
                        "name": "block_1_expand"
                    },
                    {
                        "class_name": "BatchNormalization",
                        "inbound_nodes": [
                            [
                                [
                                    "block_1_expand",
                                    0,
                                    0,
                                    {}
                                ]
                            ]
                        ],
                        "config": {
                            "gamma_initializer": {
                                "class_name": "Ones",
                                "config": {}
                            },
                            "moving_mean_initializer": {
                                "class_name": "Zeros",
                                "config": {}
                            },
                            "name": "block_1_expand_BN",
                            "epsilon": 0.001,
                            "trainable": true,
                            "center": true,
                            "moving_variance_initializer": {
                                "class_name": "Ones",
                                "config": {}
                            },
                            "beta_initializer": {
                                "class_name": "Zeros",
                                "config": {}
                            },
                            "scale": true,
                            "gamma_regularizer": null,
                            "gamma_constraint": null,
                            "beta_constraint": null,
                            "beta_regularizer": null,
                            "momentum": 0.999,
                            "axis": -1
                        },
                        "name": "block_1_expand_BN"
                    },
                    {
                        "class_name": "Activation",
                        "inbound_nodes": [
                            [
                                [
                                    "block_1_expand_BN",
                                    0,
                                    0,
                                    {}
                                ]
                            ]
                        ],
                        "config": {
                            "activation": "relu6",
                            "trainable": true,
                            "name": "block_1_expand_relu"
                        },
                        "name": "block_1_expand_relu"
                    },
                    {
                        "class_name": "DepthwiseConv2D",
                        "inbound_nodes": [
                            [
                                [
                                    "block_1_expand_relu",
                                    0,
                                    0,
                                    {}
                                ]
                            ]
                        ],
                        "config": {
                            "padding": "same",
                            "depth_multiplier": 1,
                            "name": "block_1_depthwise",
                            "bias_regularizer": null,
                            "bias_constraint": null,
                            "activation": "linear",
                            "trainable": true,
                            "data_format": "channels_last",
                            "depthwise_constraint": null,
                            "strides": [
                                2,
                                2
                            ],
                            "dilation_rate": [
                                1,
                                1
                            ],
                            "depthwise_initializer": {
                                "class_name": "VarianceScaling",
                                "config": {
                                    "distribution": "uniform",
                                    "scale": 1.0,
                                    "seed": null,
                                    "mode": "fan_avg"
                                }
                            },
                            "bias_initializer": {
                                "class_name": "Zeros",
                                "config": {}
                            },
                            "depthwise_regularizer": null,
                            "use_bias": false,
                            "activity_regularizer": null,
                            "kernel_size": [
                                3,
                                3
                            ]
                        },
                        "name": "block_1_depthwise"
                    },
                    {
                        "class_name": "BatchNormalization",
                        "inbound_nodes": [
                            [
                                [
                                    "block_1_depthwise",
                                    0,
                                    0,
                                    {}
                                ]
                            ]
                        ],
                        "config": {
                            "gamma_initializer": {
                                "class_name": "Ones",
                                "config": {}
                            },
                            "moving_mean_initializer": {
                                "class_name": "Zeros",
                                "config": {}
                            },
                            "name": "block_1_depthwise_BN",
                            "epsilon": 0.001,
                            "trainable": true,
                            "center": true,
                            "moving_variance_initializer": {
                                "class_name": "Ones",
                                "config": {}
                            },
                            "beta_initializer": {
                                "class_name": "Zeros",
                                "config": {}
                            },
                            "scale": true,
                            "gamma_regularizer": null,
                            "gamma_constraint": null,
                            "beta_constraint": null,
                            "beta_regularizer": null,
                            "momentum": 0.999,
                            "axis": -1
                        },
                        "name": "block_1_depthwise_BN"
                    },
                    {
                        "class_name": "Activation",
                        "inbound_nodes": [
                            [
                                [
                                    "block_1_depthwise_BN",
                                    0,
                                    0,
                                    {}
                                ]
                            ]
                        ],
                        "config": {
                            "activation": "relu6",
                            "trainable": true,
                            "name": "block_1_depthwise_relu"
                        },
                        "name": "block_1_depthwise_relu"
                    },
                    {
                        "class_name": "Conv2D",
                        "inbound_nodes": [
                            [
                                [
                                    "block_1_depthwise_relu",
                                    0,
                                    0,
                                    {}
                                ]
                            ]
                        ],
                        "config": {
                            "kernel_initializer": {
                                "class_name": "VarianceScaling",
                                "config": {
                                    "distribution": "uniform",
                                    "scale": 1.0,
                                    "seed": null,
                                    "mode": "fan_avg"
                                }
                            },
                            "name": "block_1_project",
                            "kernel_constraint": null,
                            "bias_regularizer": null,
                            "bias_constraint": null,
                            "activation": "linear",
                            "trainable": true,
                            "data_format": "channels_last",
                            "padding": "same",
                            "strides": [
                                1,
                                1
                            ],
                            "dilation_rate": [
                                1,
                                1
                            ],
                            "kernel_regularizer": null,
                            "filters": 24,
                            "bias_initializer": {
                                "class_name": "Zeros",
                                "config": {}
                            },
                            "use_bias": false,
                            "activity_regularizer": null,
                            "kernel_size": [
                                1,
                                1
                            ]
                        },
                        "name": "block_1_project"
                    },
                    {
                        "class_name": "BatchNormalization",
                        "inbound_nodes": [
                            [
                                [
                                    "block_1_project",
                                    0,
                                    0,
                                    {}
                                ]
                            ]
                        ],
                        "config": {
                            "gamma_initializer": {
                                "class_name": "Ones",
                                "config": {}
                            },
                            "moving_mean_initializer": {
                                "class_name": "Zeros",
                                "config": {}
                            },
                            "name": "block_1_project_BN",
                            "epsilon": 0.001,
                            "trainable": true,
                            "center": true,
                            "moving_variance_initializer": {
                                "class_name": "Ones",
                                "config": {}
                            },
                            "beta_initializer": {
                                "class_name": "Zeros",
                                "config": {}
                            },
                            "scale": true,
                            "gamma_regularizer": null,
                            "gamma_constraint": null,
                            "beta_constraint": null,
                            "beta_regularizer": null,
                            "momentum": 0.999,
                            "axis": -1
                        },
                        "name": "block_1_project_BN"
                    },
                    {
                        "class_name": "Conv2D",
                        "inbound_nodes": [
                            [
                                [
                                    "block_1_project_BN",
                                    0,
                                    0,
                                    {}
                                ]
                            ]
                        ],
                        "config": {
                            "kernel_initializer": {
                                "class_name": "VarianceScaling",
                                "config": {
                                    "distribution": "uniform",
                                    "scale": 1.0,
                                    "seed": null,
                                    "mode": "fan_avg"
                                }
                            },
                            "name": "block_2_expand",
                            "kernel_constraint": null,
                            "bias_regularizer": null,
                            "bias_constraint": null,
                            "activation": "linear",
                            "trainable": true,
                            "data_format": "channels_last",
                            "padding": "same",
                            "strides": [
                                1,
                                1
                            ],
                            "dilation_rate": [
                                1,
                                1
                            ],
                            "kernel_regularizer": null,
                            "filters": 144,
                            "bias_initializer": {
                                "class_name": "Zeros",
                                "config": {}
                            },
                            "use_bias": false,
                            "activity_regularizer": null,
                            "kernel_size": [
                                1,
                                1
                            ]
                        },
                        "name": "block_2_expand"
                    },
                    {
                        "class_name": "BatchNormalization",
                        "inbound_nodes": [
                            [
                                [
                                    "block_2_expand",
                                    0,
                                    0,
                                    {}
                                ]
                            ]
                        ],
                        "config": {
                            "gamma_initializer": {
                                "class_name": "Ones",
                                "config": {}
                            },
                            "moving_mean_initializer": {
                                "class_name": "Zeros",
                                "config": {}
                            },
                            "name": "block_2_expand_BN",
                            "epsilon": 0.001,
                            "trainable": true,
                            "center": true,
                            "moving_variance_initializer": {
                                "class_name": "Ones",
                                "config": {}
                            },
                            "beta_initializer": {
                                "class_name": "Zeros",
                                "config": {}
                            },
                            "scale": true,
                            "gamma_regularizer": null,
                            "gamma_constraint": null,
                            "beta_constraint": null,
                            "beta_regularizer": null,
                            "momentum": 0.999,
                            "axis": -1
                        },
                        "name": "block_2_expand_BN"
                    },
                    {
                        "class_name": "Activation",
                        "inbound_nodes": [
                            [
                                [
                                    "block_2_expand_BN",
                                    0,
                                    0,
                                    {}
                                ]
                            ]
                        ],
                        "config": {
                            "activation": "relu6",
                            "trainable": true,
                            "name": "block_2_expand_relu"
                        },
                        "name": "block_2_expand_relu"
                    },
                    {
                        "class_name": "DepthwiseConv2D",
                        "inbound_nodes": [
                            [
                                [
                                    "block_2_expand_relu",
                                    0,
                                    0,
                                    {}
                                ]
                            ]
                        ],
                        "config": {
                            "padding": "same",
                            "depth_multiplier": 1,
                            "name": "block_2_depthwise",
                            "bias_regularizer": null,
                            "bias_constraint": null,
                            "activation": "linear",
                            "trainable": true,
                            "data_format": "channels_last",
                            "depthwise_constraint": null,
                            "strides": [
                                1,
                                1
                            ],
                            "dilation_rate": [
                                1,
                                1
                            ],
                            "depthwise_initializer": {
                                "class_name": "VarianceScaling",
                                "config": {
                                    "distribution": "uniform",
                                    "scale": 1.0,
                                    "seed": null,
                                    "mode": "fan_avg"
                                }
                            },
                            "bias_initializer": {
                                "class_name": "Zeros",
                                "config": {}
                            },
                            "depthwise_regularizer": null,
                            "use_bias": false,
                            "activity_regularizer": null,
                            "kernel_size": [
                                3,
                                3
                            ]
                        },
                        "name": "block_2_depthwise"
                    },
                    {
                        "class_name": "BatchNormalization",
                        "inbound_nodes": [
                            [
                                [
                                    "block_2_depthwise",
                                    0,
                                    0,
                                    {}
                                ]
                            ]
                        ],
                        "config": {
                            "gamma_initializer": {
                                "class_name": "Ones",
                                "config": {}
                            },
                            "moving_mean_initializer": {
                                "class_name": "Zeros",
                                "config": {}
                            },
                            "name": "block_2_depthwise_BN",
                            "epsilon": 0.001,
                            "trainable": true,
                            "center": true,
                            "moving_variance_initializer": {
                                "class_name": "Ones",
                                "config": {}
                            },
                            "beta_initializer": {
                                "class_name": "Zeros",
                                "config": {}
                            },
                            "scale": true,
                            "gamma_regularizer": null,
                            "gamma_constraint": null,
                            "beta_constraint": null,
                            "beta_regularizer": null,
                            "momentum": 0.999,
                            "axis": -1
                        },
                        "name": "block_2_depthwise_BN"
                    },
                    {
                        "class_name": "Activation",
                        "inbound_nodes": [
                            [
                                [
                                    "block_2_depthwise_BN",
                                    0,
                                    0,
                                    {}
                                ]
                            ]
                        ],
                        "config": {
                            "activation": "relu6",
                            "trainable": true,
                            "name": "block_2_depthwise_relu"
                        },
                        "name": "block_2_depthwise_relu"
                    },
                    {
                        "class_name": "Conv2D",
                        "inbound_nodes": [
                            [
                                [
                                    "block_2_depthwise_relu",
                                    0,
                                    0,
                                    {}
                                ]
                            ]
                        ],
                        "config": {
                            "kernel_initializer": {
                                "class_name": "VarianceScaling",
                                "config": {
                                    "distribution": "uniform",
                                    "scale": 1.0,
                                    "seed": null,
                                    "mode": "fan_avg"
                                }
                            },
                            "name": "block_2_project",
                            "kernel_constraint": null,
                            "bias_regularizer": null,
                            "bias_constraint": null,
                            "activation": "linear",
                            "trainable": true,
                            "data_format": "channels_last",
                            "padding": "same",
                            "strides": [
                                1,
                                1
                            ],
                            "dilation_rate": [
                                1,
                                1
                            ],
                            "kernel_regularizer": null,
                            "filters": 24,
                            "bias_initializer": {
                                "class_name": "Zeros",
                                "config": {}
                            },
                            "use_bias": false,
                            "activity_regularizer": null,
                            "kernel_size": [
                                1,
                                1
                            ]
                        },
                        "name": "block_2_project"
                    },
                    {
                        "class_name": "BatchNormalization",
                        "inbound_nodes": [
                            [
                                [
                                    "block_2_project",
                                    0,
                                    0,
                                    {}
                                ]
                            ]
                        ],
                        "config": {
                            "gamma_initializer": {
                                "class_name": "Ones",
                                "config": {}
                            },
                            "moving_mean_initializer": {
                                "class_name": "Zeros",
                                "config": {}
                            },
                            "name": "block_2_project_BN",
                            "epsilon": 0.001,
                            "trainable": true,
                            "center": true,
                            "moving_variance_initializer": {
                                "class_name": "Ones",
                                "config": {}
                            },
                            "beta_initializer": {
                                "class_name": "Zeros",
                                "config": {}
                            },
                            "scale": true,
                            "gamma_regularizer": null,
                            "gamma_constraint": null,
                            "beta_constraint": null,
                            "beta_regularizer": null,
                            "momentum": 0.999,
                            "axis": -1
                        },
                        "name": "block_2_project_BN"
                    },
                    {
                        "class_name": "Add",
                        "inbound_nodes": [
                            [
                                [
                                    "block_1_project_BN",
                                    0,
                                    0,
                                    {}
                                ],
                                [
                                    "block_2_project_BN",
                                    0,
                                    0,
                                    {}
                                ]
                            ]
                        ],
                        "config": {
                            "trainable": true,
                            "name": "block_2_add"
                        },
                        "name": "block_2_add"
                    },
                    {
                        "class_name": "Conv2D",
                        "inbound_nodes": [
                            [
                                [
                                    "block_2_add",
                                    0,
                                    0,
                                    {}
                                ]
                            ]
                        ],
                        "config": {
                            "kernel_initializer": {
                                "class_name": "VarianceScaling",
                                "config": {
                                    "distribution": "uniform",
                                    "scale": 1.0,
                                    "seed": null,
                                    "mode": "fan_avg"
                                }
                            },
                            "name": "block_3_expand",
                            "kernel_constraint": null,
                            "bias_regularizer": null,
                            "bias_constraint": null,
                            "activation": "linear",
                            "trainable": true,
                            "data_format": "channels_last",
                            "padding": "same",
                            "strides": [
                                1,
                                1
                            ],
                            "dilation_rate": [
                                1,
                                1
                            ],
                            "kernel_regularizer": null,
                            "filters": 144,
                            "bias_initializer": {
                                "class_name": "Zeros",
                                "config": {}
                            },
                            "use_bias": false,
                            "activity_regularizer": null,
                            "kernel_size": [
                                1,
                                1
                            ]
                        },
                        "name": "block_3_expand"
                    },
                    {
                        "class_name": "BatchNormalization",
                        "inbound_nodes": [
                            [
                                [
                                    "block_3_expand",
                                    0,
                                    0,
                                    {}
                                ]
                            ]
                        ],
                        "config": {
                            "gamma_initializer": {
                                "class_name": "Ones",
                                "config": {}
                            },
                            "moving_mean_initializer": {
                                "class_name": "Zeros",
                                "config": {}
                            },
                            "name": "block_3_expand_BN",
                            "epsilon": 0.001,
                            "trainable": true,
                            "center": true,
                            "moving_variance_initializer": {
                                "class_name": "Ones",
                                "config": {}
                            },
                            "beta_initializer": {
                                "class_name": "Zeros",
                                "config": {}
                            },
                            "scale": true,
                            "gamma_regularizer": null,
                            "gamma_constraint": null,
                            "beta_constraint": null,
                            "beta_regularizer": null,
                            "momentum": 0.999,
                            "axis": -1
                        },
                        "name": "block_3_expand_BN"
                    },
                    {
                        "class_name": "Activation",
                        "inbound_nodes": [
                            [
                                [
                                    "block_3_expand_BN",
                                    0,
                                    0,
                                    {}
                                ]
                            ]
                        ],
                        "config": {
                            "activation": "relu6",
                            "trainable": true,
                            "name": "block_3_expand_relu"
                        },
                        "name": "block_3_expand_relu"
                    },
                    {
                        "class_name": "DepthwiseConv2D",
                        "inbound_nodes": [
                            [
                                [
                                    "block_3_expand_relu",
                                    0,
                                    0,
                                    {}
                                ]
                            ]
                        ],
                        "config": {
                            "padding": "same",
                            "depth_multiplier": 1,
                            "name": "block_3_depthwise",
                            "bias_regularizer": null,
                            "bias_constraint": null,
                            "activation": "linear",
                            "trainable": true,
                            "data_format": "channels_last",
                            "depthwise_constraint": null,
                            "strides": [
                                2,
                                2
                            ],
                            "dilation_rate": [
                                1,
                                1
                            ],
                            "depthwise_initializer": {
                                "class_name": "VarianceScaling",
                                "config": {
                                    "distribution": "uniform",
                                    "scale": 1.0,
                                    "seed": null,
                                    "mode": "fan_avg"
                                }
                            },
                            "bias_initializer": {
                                "class_name": "Zeros",
                                "config": {}
                            },
                            "depthwise_regularizer": null,
                            "use_bias": false,
                            "activity_regularizer": null,
                            "kernel_size": [
                                3,
                                3
                            ]
                        },
                        "name": "block_3_depthwise"
                    },
                    {
                        "class_name": "BatchNormalization",
                        "inbound_nodes": [
                            [
                                [
                                    "block_3_depthwise",
                                    0,
                                    0,
                                    {}
                                ]
                            ]
                        ],
                        "config": {
                            "gamma_initializer": {
                                "class_name": "Ones",
                                "config": {}
                            },
                            "moving_mean_initializer": {
                                "class_name": "Zeros",
                                "config": {}
                            },
                            "name": "block_3_depthwise_BN",
                            "epsilon": 0.001,
                            "trainable": true,
                            "center": true,
                            "moving_variance_initializer": {
                                "class_name": "Ones",
                                "config": {}
                            },
                            "beta_initializer": {
                                "class_name": "Zeros",
                                "config": {}
                            },
                            "scale": true,
                            "gamma_regularizer": null,
                            "gamma_constraint": null,
                            "beta_constraint": null,
                            "beta_regularizer": null,
                            "momentum": 0.999,
                            "axis": -1
                        },
                        "name": "block_3_depthwise_BN"
                    },
                    {
                        "class_name": "Activation",
                        "inbound_nodes": [
                            [
                                [
                                    "block_3_depthwise_BN",
                                    0,
                                    0,
                                    {}
                                ]
                            ]
                        ],
                        "config": {
                            "activation": "relu6",
                            "trainable": true,
                            "name": "block_3_depthwise_relu"
                        },
                        "name": "block_3_depthwise_relu"
                    },
                    {
                        "class_name": "Conv2D",
                        "inbound_nodes": [
                            [
                                [
                                    "block_3_depthwise_relu",
                                    0,
                                    0,
                                    {}
                                ]
                            ]
                        ],
                        "config": {
                            "kernel_initializer": {
                                "class_name": "VarianceScaling",
                                "config": {
                                    "distribution": "uniform",
                                    "scale": 1.0,
                                    "seed": null,
                                    "mode": "fan_avg"
                                }
                            },
                            "name": "block_3_project",
                            "kernel_constraint": null,
                            "bias_regularizer": null,
                            "bias_constraint": null,
                            "activation": "linear",
                            "trainable": true,
                            "data_format": "channels_last",
                            "padding": "same",
                            "strides": [
                                1,
                                1
                            ],
                            "dilation_rate": [
                                1,
                                1
                            ],
                            "kernel_regularizer": null,
                            "filters": 32,
                            "bias_initializer": {
                                "class_name": "Zeros",
                                "config": {}
                            },
                            "use_bias": false,
                            "activity_regularizer": null,
                            "kernel_size": [
                                1,
                                1
                            ]
                        },
                        "name": "block_3_project"
                    },
                    {
                        "class_name": "BatchNormalization",
                        "inbound_nodes": [
                            [
                                [
                                    "block_3_project",
                                    0,
                                    0,
                                    {}
                                ]
                            ]
                        ],
                        "config": {
                            "gamma_initializer": {
                                "class_name": "Ones",
                                "config": {}
                            },
                            "moving_mean_initializer": {
                                "class_name": "Zeros",
                                "config": {}
                            },
                            "name": "block_3_project_BN",
                            "epsilon": 0.001,
                            "trainable": true,
                            "center": true,
                            "moving_variance_initializer": {
                                "class_name": "Ones",
                                "config": {}
                            },
                            "beta_initializer": {
                                "class_name": "Zeros",
                                "config": {}
                            },
                            "scale": true,
                            "gamma_regularizer": null,
                            "gamma_constraint": null,
                            "beta_constraint": null,
                            "beta_regularizer": null,
                            "momentum": 0.999,
                            "axis": -1
                        },
                        "name": "block_3_project_BN"
                    },
                    {
                        "class_name": "Conv2D",
                        "inbound_nodes": [
                            [
                                [
                                    "block_3_project_BN",
                                    0,
                                    0,
                                    {}
                                ]
                            ]
                        ],
                        "config": {
                            "kernel_initializer": {
                                "class_name": "VarianceScaling",
                                "config": {
                                    "distribution": "uniform",
                                    "scale": 1.0,
                                    "seed": null,
                                    "mode": "fan_avg"
                                }
                            },
                            "name": "block_4_expand",
                            "kernel_constraint": null,
                            "bias_regularizer": null,
                            "bias_constraint": null,
                            "activation": "linear",
                            "trainable": true,
                            "data_format": "channels_last",
                            "padding": "same",
                            "strides": [
                                1,
                                1
                            ],
                            "dilation_rate": [
                                1,
                                1
                            ],
                            "kernel_regularizer": null,
                            "filters": 192,
                            "bias_initializer": {
                                "class_name": "Zeros",
                                "config": {}
                            },
                            "use_bias": false,
                            "activity_regularizer": null,
                            "kernel_size": [
                                1,
                                1
                            ]
                        },
                        "name": "block_4_expand"
                    },
                    {
                        "class_name": "BatchNormalization",
                        "inbound_nodes": [
                            [
                                [
                                    "block_4_expand",
                                    0,
                                    0,
                                    {}
                                ]
                            ]
                        ],
                        "config": {
                            "gamma_initializer": {
                                "class_name": "Ones",
                                "config": {}
                            },
                            "moving_mean_initializer": {
                                "class_name": "Zeros",
                                "config": {}
                            },
                            "name": "block_4_expand_BN",
                            "epsilon": 0.001,
                            "trainable": true,
                            "center": true,
                            "moving_variance_initializer": {
                                "class_name": "Ones",
                                "config": {}
                            },
                            "beta_initializer": {
                                "class_name": "Zeros",
                                "config": {}
                            },
                            "scale": true,
                            "gamma_regularizer": null,
                            "gamma_constraint": null,
                            "beta_constraint": null,
                            "beta_regularizer": null,
                            "momentum": 0.999,
                            "axis": -1
                        },
                        "name": "block_4_expand_BN"
                    },
                    {
                        "class_name": "Activation",
                        "inbound_nodes": [
                            [
                                [
                                    "block_4_expand_BN",
                                    0,
                                    0,
                                    {}
                                ]
                            ]
                        ],
                        "config": {
                            "activation": "relu6",
                            "trainable": true,
                            "name": "block_4_expand_relu"
                        },
                        "name": "block_4_expand_relu"
                    },
                    {
                        "class_name": "DepthwiseConv2D",
                        "inbound_nodes": [
                            [
                                [
                                    "block_4_expand_relu",
                                    0,
                                    0,
                                    {}
                                ]
                            ]
                        ],
                        "config": {
                            "padding": "same",
                            "depth_multiplier": 1,
                            "name": "block_4_depthwise",
                            "bias_regularizer": null,
                            "bias_constraint": null,
                            "activation": "linear",
                            "trainable": true,
                            "data_format": "channels_last",
                            "depthwise_constraint": null,
                            "strides": [
                                1,
                                1
                            ],
                            "dilation_rate": [
                                1,
                                1
                            ],
                            "depthwise_initializer": {
                                "class_name": "VarianceScaling",
                                "config": {
                                    "distribution": "uniform",
                                    "scale": 1.0,
                                    "seed": null,
                                    "mode": "fan_avg"
                                }
                            },
                            "bias_initializer": {
                                "class_name": "Zeros",
                                "config": {}
                            },
                            "depthwise_regularizer": null,
                            "use_bias": false,
                            "activity_regularizer": null,
                            "kernel_size": [
                                3,
                                3
                            ]
                        },
                        "name": "block_4_depthwise"
                    },
                    {
                        "class_name": "BatchNormalization",
                        "inbound_nodes": [
                            [
                                [
                                    "block_4_depthwise",
                                    0,
                                    0,
                                    {}
                                ]
                            ]
                        ],
                        "config": {
                            "gamma_initializer": {
                                "class_name": "Ones",
                                "config": {}
                            },
                            "moving_mean_initializer": {
                                "class_name": "Zeros",
                                "config": {}
                            },
                            "name": "block_4_depthwise_BN",
                            "epsilon": 0.001,
                            "trainable": true,
                            "center": true,
                            "moving_variance_initializer": {
                                "class_name": "Ones",
                                "config": {}
                            },
                            "beta_initializer": {
                                "class_name": "Zeros",
                                "config": {}
                            },
                            "scale": true,
                            "gamma_regularizer": null,
                            "gamma_constraint": null,
                            "beta_constraint": null,
                            "beta_regularizer": null,
                            "momentum": 0.999,
                            "axis": -1
                        },
                        "name": "block_4_depthwise_BN"
                    },
                    {
                        "class_name": "Activation",
                        "inbound_nodes": [
                            [
                                [
                                    "block_4_depthwise_BN",
                                    0,
                                    0,
                                    {}
                                ]
                            ]
                        ],
                        "config": {
                            "activation": "relu6",
                            "trainable": true,
                            "name": "block_4_depthwise_relu"
                        },
                        "name": "block_4_depthwise_relu"
                    },
                    {
                        "class_name": "Conv2D",
                        "inbound_nodes": [
                            [
                                [
                                    "block_4_depthwise_relu",
                                    0,
                                    0,
                                    {}
                                ]
                            ]
                        ],
                        "config": {
                            "kernel_initializer": {
                                "class_name": "VarianceScaling",
                                "config": {
                                    "distribution": "uniform",
                                    "scale": 1.0,
                                    "seed": null,
                                    "mode": "fan_avg"
                                }
                            },
                            "name": "block_4_project",
                            "kernel_constraint": null,
                            "bias_regularizer": null,
                            "bias_constraint": null,
                            "activation": "linear",
                            "trainable": true,
                            "data_format": "channels_last",
                            "padding": "same",
                            "strides": [
                                1,
                                1
                            ],
                            "dilation_rate": [
                                1,
                                1
                            ],
                            "kernel_regularizer": null,
                            "filters": 32,
                            "bias_initializer": {
                                "class_name": "Zeros",
                                "config": {}
                            },
                            "use_bias": false,
                            "activity_regularizer": null,
                            "kernel_size": [
                                1,
                                1
                            ]
                        },
                        "name": "block_4_project"
                    },
                    {
                        "class_name": "BatchNormalization",
                        "inbound_nodes": [
                            [
                                [
                                    "block_4_project",
                                    0,
                                    0,
                                    {}
                                ]
                            ]
                        ],
                        "config": {
                            "gamma_initializer": {
                                "class_name": "Ones",
                                "config": {}
                            },
                            "moving_mean_initializer": {
                                "class_name": "Zeros",
                                "config": {}
                            },
                            "name": "block_4_project_BN",
                            "epsilon": 0.001,
                            "trainable": true,
                            "center": true,
                            "moving_variance_initializer": {
                                "class_name": "Ones",
                                "config": {}
                            },
                            "beta_initializer": {
                                "class_name": "Zeros",
                                "config": {}
                            },
                            "scale": true,
                            "gamma_regularizer": null,
                            "gamma_constraint": null,
                            "beta_constraint": null,
                            "beta_regularizer": null,
                            "momentum": 0.999,
                            "axis": -1
                        },
                        "name": "block_4_project_BN"
                    },
                    {
                        "class_name": "Add",
                        "inbound_nodes": [
                            [
                                [
                                    "block_3_project_BN",
                                    0,
                                    0,
                                    {}
                                ],
                                [
                                    "block_4_project_BN",
                                    0,
                                    0,
                                    {}
                                ]
                            ]
                        ],
                        "config": {
                            "trainable": true,
                            "name": "block_4_add"
                        },
                        "name": "block_4_add"
                    },
                    {
                        "class_name": "Conv2D",
                        "inbound_nodes": [
                            [
                                [
                                    "block_4_add",
                                    0,
                                    0,
                                    {}
                                ]
                            ]
                        ],
                        "config": {
                            "kernel_initializer": {
                                "class_name": "VarianceScaling",
                                "config": {
                                    "distribution": "uniform",
                                    "scale": 1.0,
                                    "seed": null,
                                    "mode": "fan_avg"
                                }
                            },
                            "name": "block_5_expand",
                            "kernel_constraint": null,
                            "bias_regularizer": null,
                            "bias_constraint": null,
                            "activation": "linear",
                            "trainable": true,
                            "data_format": "channels_last",
                            "padding": "same",
                            "strides": [
                                1,
                                1
                            ],
                            "dilation_rate": [
                                1,
                                1
                            ],
                            "kernel_regularizer": null,
                            "filters": 192,
                            "bias_initializer": {
                                "class_name": "Zeros",
                                "config": {}
                            },
                            "use_bias": false,
                            "activity_regularizer": null,
                            "kernel_size": [
                                1,
                                1
                            ]
                        },
                        "name": "block_5_expand"
                    },
                    {
                        "class_name": "BatchNormalization",
                        "inbound_nodes": [
                            [
                                [
                                    "block_5_expand",
                                    0,
                                    0,
                                    {}
                                ]
                            ]
                        ],
                        "config": {
                            "gamma_initializer": {
                                "class_name": "Ones",
                                "config": {}
                            },
                            "moving_mean_initializer": {
                                "class_name": "Zeros",
                                "config": {}
                            },
                            "name": "block_5_expand_BN",
                            "epsilon": 0.001,
                            "trainable": true,
                            "center": true,
                            "moving_variance_initializer": {
                                "class_name": "Ones",
                                "config": {}
                            },
                            "beta_initializer": {
                                "class_name": "Zeros",
                                "config": {}
                            },
                            "scale": true,
                            "gamma_regularizer": null,
                            "gamma_constraint": null,
                            "beta_constraint": null,
                            "beta_regularizer": null,
                            "momentum": 0.999,
                            "axis": -1
                        },
                        "name": "block_5_expand_BN"
                    },
                    {
                        "class_name": "Activation",
                        "inbound_nodes": [
                            [
                                [
                                    "block_5_expand_BN",
                                    0,
                                    0,
                                    {}
                                ]
                            ]
                        ],
                        "config": {
                            "activation": "relu6",
                            "trainable": true,
                            "name": "block_5_expand_relu"
                        },
                        "name": "block_5_expand_relu"
                    },
                    {
                        "class_name": "DepthwiseConv2D",
                        "inbound_nodes": [
                            [
                                [
                                    "block_5_expand_relu",
                                    0,
                                    0,
                                    {}
                                ]
                            ]
                        ],
                        "config": {
                            "padding": "same",
                            "depth_multiplier": 1,
                            "name": "block_5_depthwise",
                            "bias_regularizer": null,
                            "bias_constraint": null,
                            "activation": "linear",
                            "trainable": true,
                            "data_format": "channels_last",
                            "depthwise_constraint": null,
                            "strides": [
                                1,
                                1
                            ],
                            "dilation_rate": [
                                1,
                                1
                            ],
                            "depthwise_initializer": {
                                "class_name": "VarianceScaling",
                                "config": {
                                    "distribution": "uniform",
                                    "scale": 1.0,
                                    "seed": null,
                                    "mode": "fan_avg"
                                }
                            },
                            "bias_initializer": {
                                "class_name": "Zeros",
                                "config": {}
                            },
                            "depthwise_regularizer": null,
                            "use_bias": false,
                            "activity_regularizer": null,
                            "kernel_size": [
                                3,
                                3
                            ]
                        },
                        "name": "block_5_depthwise"
                    },
                    {
                        "class_name": "BatchNormalization",
                        "inbound_nodes": [
                            [
                                [
                                    "block_5_depthwise",
                                    0,
                                    0,
                                    {}
                                ]
                            ]
                        ],
                        "config": {
                            "gamma_initializer": {
                                "class_name": "Ones",
                                "config": {}
                            },
                            "moving_mean_initializer": {
                                "class_name": "Zeros",
                                "config": {}
                            },
                            "name": "block_5_depthwise_BN",
                            "epsilon": 0.001,
                            "trainable": true,
                            "center": true,
                            "moving_variance_initializer": {
                                "class_name": "Ones",
                                "config": {}
                            },
                            "beta_initializer": {
                                "class_name": "Zeros",
                                "config": {}
                            },
                            "scale": true,
                            "gamma_regularizer": null,
                            "gamma_constraint": null,
                            "beta_constraint": null,
                            "beta_regularizer": null,
                            "momentum": 0.999,
                            "axis": -1
                        },
                        "name": "block_5_depthwise_BN"
                    },
                    {
                        "class_name": "Activation",
                        "inbound_nodes": [
                            [
                                [
                                    "block_5_depthwise_BN",
                                    0,
                                    0,
                                    {}
                                ]
                            ]
                        ],
                        "config": {
                            "activation": "relu6",
                            "trainable": true,
                            "name": "block_5_depthwise_relu"
                        },
                        "name": "block_5_depthwise_relu"
                    },
                    {
                        "class_name": "Conv2D",
                        "inbound_nodes": [
                            [
                                [
                                    "block_5_depthwise_relu",
                                    0,
                                    0,
                                    {}
                                ]
                            ]
                        ],
                        "config": {
                            "kernel_initializer": {
                                "class_name": "VarianceScaling",
                                "config": {
                                    "distribution": "uniform",
                                    "scale": 1.0,
                                    "seed": null,
                                    "mode": "fan_avg"
                                }
                            },
                            "name": "block_5_project",
                            "kernel_constraint": null,
                            "bias_regularizer": null,
                            "bias_constraint": null,
                            "activation": "linear",
                            "trainable": true,
                            "data_format": "channels_last",
                            "padding": "same",
                            "strides": [
                                1,
                                1
                            ],
                            "dilation_rate": [
                                1,
                                1
                            ],
                            "kernel_regularizer": null,
                            "filters": 32,
                            "bias_initializer": {
                                "class_name": "Zeros",
                                "config": {}
                            },
                            "use_bias": false,
                            "activity_regularizer": null,
                            "kernel_size": [
                                1,
                                1
                            ]
                        },
                        "name": "block_5_project"
                    },
                    {
                        "class_name": "BatchNormalization",
                        "inbound_nodes": [
                            [
                                [
                                    "block_5_project",
                                    0,
                                    0,
                                    {}
                                ]
                            ]
                        ],
                        "config": {
                            "gamma_initializer": {
                                "class_name": "Ones",
                                "config": {}
                            },
                            "moving_mean_initializer": {
                                "class_name": "Zeros",
                                "config": {}
                            },
                            "name": "block_5_project_BN",
                            "epsilon": 0.001,
                            "trainable": true,
                            "center": true,
                            "moving_variance_initializer": {
                                "class_name": "Ones",
                                "config": {}
                            },
                            "beta_initializer": {
                                "class_name": "Zeros",
                                "config": {}
                            },
                            "scale": true,
                            "gamma_regularizer": null,
                            "gamma_constraint": null,
                            "beta_constraint": null,
                            "beta_regularizer": null,
                            "momentum": 0.999,
                            "axis": -1
                        },
                        "name": "block_5_project_BN"
                    },
                    {
                        "class_name": "Add",
                        "inbound_nodes": [
                            [
                                [
                                    "block_4_add",
                                    0,
                                    0,
                                    {}
                                ],
                                [
                                    "block_5_project_BN",
                                    0,
                                    0,
                                    {}
                                ]
                            ]
                        ],
                        "config": {
                            "trainable": true,
                            "name": "block_5_add"
                        },
                        "name": "block_5_add"
                    },
                    {
                        "class_name": "Conv2D",
                        "inbound_nodes": [
                            [
                                [
                                    "block_5_add",
                                    0,
                                    0,
                                    {}
                                ]
                            ]
                        ],
                        "config": {
                            "kernel_initializer": {
                                "class_name": "VarianceScaling",
                                "config": {
                                    "distribution": "uniform",
                                    "scale": 1.0,
                                    "seed": null,
                                    "mode": "fan_avg"
                                }
                            },
                            "name": "block_6_expand",
                            "kernel_constraint": null,
                            "bias_regularizer": null,
                            "bias_constraint": null,
                            "activation": "linear",
                            "trainable": true,
                            "data_format": "channels_last",
                            "padding": "same",
                            "strides": [
                                1,
                                1
                            ],
                            "dilation_rate": [
                                1,
                                1
                            ],
                            "kernel_regularizer": null,
                            "filters": 192,
                            "bias_initializer": {
                                "class_name": "Zeros",
                                "config": {}
                            },
                            "use_bias": false,
                            "activity_regularizer": null,
                            "kernel_size": [
                                1,
                                1
                            ]
                        },
                        "name": "block_6_expand"
                    },
                    {
                        "class_name": "BatchNormalization",
                        "inbound_nodes": [
                            [
                                [
                                    "block_6_expand",
                                    0,
                                    0,
                                    {}
                                ]
                            ]
                        ],
                        "config": {
                            "gamma_initializer": {
                                "class_name": "Ones",
                                "config": {}
                            },
                            "moving_mean_initializer": {
                                "class_name": "Zeros",
                                "config": {}
                            },
                            "name": "block_6_expand_BN",
                            "epsilon": 0.001,
                            "trainable": true,
                            "center": true,
                            "moving_variance_initializer": {
                                "class_name": "Ones",
                                "config": {}
                            },
                            "beta_initializer": {
                                "class_name": "Zeros",
                                "config": {}
                            },
                            "scale": true,
                            "gamma_regularizer": null,
                            "gamma_constraint": null,
                            "beta_constraint": null,
                            "beta_regularizer": null,
                            "momentum": 0.999,
                            "axis": -1
                        },
                        "name": "block_6_expand_BN"
                    },
                    {
                        "class_name": "Activation",
                        "inbound_nodes": [
                            [
                                [
                                    "block_6_expand_BN",
                                    0,
                                    0,
                                    {}
                                ]
                            ]
                        ],
                        "config": {
                            "activation": "relu6",
                            "trainable": true,
                            "name": "block_6_expand_relu"
                        },
                        "name": "block_6_expand_relu"
                    },
                    {
                        "class_name": "DepthwiseConv2D",
                        "inbound_nodes": [
                            [
                                [
                                    "block_6_expand_relu",
                                    0,
                                    0,
                                    {}
                                ]
                            ]
                        ],
                        "config": {
                            "padding": "same",
                            "depth_multiplier": 1,
                            "name": "block_6_depthwise",
                            "bias_regularizer": null,
                            "bias_constraint": null,
                            "activation": "linear",
                            "trainable": true,
                            "data_format": "channels_last",
                            "depthwise_constraint": null,
                            "strides": [
                                2,
                                2
                            ],
                            "dilation_rate": [
                                1,
                                1
                            ],
                            "depthwise_initializer": {
                                "class_name": "VarianceScaling",
                                "config": {
                                    "distribution": "uniform",
                                    "scale": 1.0,
                                    "seed": null,
                                    "mode": "fan_avg"
                                }
                            },
                            "bias_initializer": {
                                "class_name": "Zeros",
                                "config": {}
                            },
                            "depthwise_regularizer": null,
                            "use_bias": false,
                            "activity_regularizer": null,
                            "kernel_size": [
                                3,
                                3
                            ]
                        },
                        "name": "block_6_depthwise"
                    },
                    {
                        "class_name": "BatchNormalization",
                        "inbound_nodes": [
                            [
                                [
                                    "block_6_depthwise",
                                    0,
                                    0,
                                    {}
                                ]
                            ]
                        ],
                        "config": {
                            "gamma_initializer": {
                                "class_name": "Ones",
                                "config": {}
                            },
                            "moving_mean_initializer": {
                                "class_name": "Zeros",
                                "config": {}
                            },
                            "name": "block_6_depthwise_BN",
                            "epsilon": 0.001,
                            "trainable": true,
                            "center": true,
                            "moving_variance_initializer": {
                                "class_name": "Ones",
                                "config": {}
                            },
                            "beta_initializer": {
                                "class_name": "Zeros",
                                "config": {}
                            },
                            "scale": true,
                            "gamma_regularizer": null,
                            "gamma_constraint": null,
                            "beta_constraint": null,
                            "beta_regularizer": null,
                            "momentum": 0.999,
                            "axis": -1
                        },
                        "name": "block_6_depthwise_BN"
                    },
                    {
                        "class_name": "Activation",
                        "inbound_nodes": [
                            [
                                [
                                    "block_6_depthwise_BN",
                                    0,
                                    0,
                                    {}
                                ]
                            ]
                        ],
                        "config": {
                            "activation": "relu6",
                            "trainable": true,
                            "name": "block_6_depthwise_relu"
                        },
                        "name": "block_6_depthwise_relu"
                    },
                    {
                        "class_name": "Conv2D",
                        "inbound_nodes": [
                            [
                                [
                                    "block_6_depthwise_relu",
                                    0,
                                    0,
                                    {}
                                ]
                            ]
                        ],
                        "config": {
                            "kernel_initializer": {
                                "class_name": "VarianceScaling",
                                "config": {
                                    "distribution": "uniform",
                                    "scale": 1.0,
                                    "seed": null,
                                    "mode": "fan_avg"
                                }
                            },
                            "name": "block_6_project",
                            "kernel_constraint": null,
                            "bias_regularizer": null,
                            "bias_constraint": null,
                            "activation": "linear",
                            "trainable": true,
                            "data_format": "channels_last",
                            "padding": "same",
                            "strides": [
                                1,
                                1
                            ],
                            "dilation_rate": [
                                1,
                                1
                            ],
                            "kernel_regularizer": null,
                            "filters": 64,
                            "bias_initializer": {
                                "class_name": "Zeros",
                                "config": {}
                            },
                            "use_bias": false,
                            "activity_regularizer": null,
                            "kernel_size": [
                                1,
                                1
                            ]
                        },
                        "name": "block_6_project"
                    },
                    {
                        "class_name": "BatchNormalization",
                        "inbound_nodes": [
                            [
                                [
                                    "block_6_project",
                                    0,
                                    0,
                                    {}
                                ]
                            ]
                        ],
                        "config": {
                            "gamma_initializer": {
                                "class_name": "Ones",
                                "config": {}
                            },
                            "moving_mean_initializer": {
                                "class_name": "Zeros",
                                "config": {}
                            },
                            "name": "block_6_project_BN",
                            "epsilon": 0.001,
                            "trainable": true,
                            "center": true,
                            "moving_variance_initializer": {
                                "class_name": "Ones",
                                "config": {}
                            },
                            "beta_initializer": {
                                "class_name": "Zeros",
                                "config": {}
                            },
                            "scale": true,
                            "gamma_regularizer": null,
                            "gamma_constraint": null,
                            "beta_constraint": null,
                            "beta_regularizer": null,
                            "momentum": 0.999,
                            "axis": -1
                        },
                        "name": "block_6_project_BN"
                    },
                    {
                        "class_name": "Conv2D",
                        "inbound_nodes": [
                            [
                                [
                                    "block_6_project_BN",
                                    0,
                                    0,
                                    {}
                                ]
                            ]
                        ],
                        "config": {
                            "kernel_initializer": {
                                "class_name": "VarianceScaling",
                                "config": {
                                    "distribution": "uniform",
                                    "scale": 1.0,
                                    "seed": null,
                                    "mode": "fan_avg"
                                }
                            },
                            "name": "block_7_expand",
                            "kernel_constraint": null,
                            "bias_regularizer": null,
                            "bias_constraint": null,
                            "activation": "linear",
                            "trainable": true,
                            "data_format": "channels_last",
                            "padding": "same",
                            "strides": [
                                1,
                                1
                            ],
                            "dilation_rate": [
                                1,
                                1
                            ],
                            "kernel_regularizer": null,
                            "filters": 384,
                            "bias_initializer": {
                                "class_name": "Zeros",
                                "config": {}
                            },
                            "use_bias": false,
                            "activity_regularizer": null,
                            "kernel_size": [
                                1,
                                1
                            ]
                        },
                        "name": "block_7_expand"
                    },
                    {
                        "class_name": "BatchNormalization",
                        "inbound_nodes": [
                            [
                                [
                                    "block_7_expand",
                                    0,
                                    0,
                                    {}
                                ]
                            ]
                        ],
                        "config": {
                            "gamma_initializer": {
                                "class_name": "Ones",
                                "config": {}
                            },
                            "moving_mean_initializer": {
                                "class_name": "Zeros",
                                "config": {}
                            },
                            "name": "block_7_expand_BN",
                            "epsilon": 0.001,
                            "trainable": true,
                            "center": true,
                            "moving_variance_initializer": {
                                "class_name": "Ones",
                                "config": {}
                            },
                            "beta_initializer": {
                                "class_name": "Zeros",
                                "config": {}
                            },
                            "scale": true,
                            "gamma_regularizer": null,
                            "gamma_constraint": null,
                            "beta_constraint": null,
                            "beta_regularizer": null,
                            "momentum": 0.999,
                            "axis": -1
                        },
                        "name": "block_7_expand_BN"
                    },
                    {
                        "class_name": "Activation",
                        "inbound_nodes": [
                            [
                                [
                                    "block_7_expand_BN",
                                    0,
                                    0,
                                    {}
                                ]
                            ]
                        ],
                        "config": {
                            "activation": "relu6",
                            "trainable": true,
                            "name": "block_7_expand_relu"
                        },
                        "name": "block_7_expand_relu"
                    },
                    {
                        "class_name": "DepthwiseConv2D",
                        "inbound_nodes": [
                            [
                                [
                                    "block_7_expand_relu",
                                    0,
                                    0,
                                    {}
                                ]
                            ]
                        ],
                        "config": {
                            "padding": "same",
                            "depth_multiplier": 1,
                            "name": "block_7_depthwise",
                            "bias_regularizer": null,
                            "bias_constraint": null,
                            "activation": "linear",
                            "trainable": true,
                            "data_format": "channels_last",
                            "depthwise_constraint": null,
                            "strides": [
                                1,
                                1
                            ],
                            "dilation_rate": [
                                1,
                                1
                            ],
                            "depthwise_initializer": {
                                "class_name": "VarianceScaling",
                                "config": {
                                    "distribution": "uniform",
                                    "scale": 1.0,
                                    "seed": null,
                                    "mode": "fan_avg"
                                }
                            },
                            "bias_initializer": {
                                "class_name": "Zeros",
                                "config": {}
                            },
                            "depthwise_regularizer": null,
                            "use_bias": false,
                            "activity_regularizer": null,
                            "kernel_size": [
                                3,
                                3
                            ]
                        },
                        "name": "block_7_depthwise"
                    },
                    {
                        "class_name": "BatchNormalization",
                        "inbound_nodes": [
                            [
                                [
                                    "block_7_depthwise",
                                    0,
                                    0,
                                    {}
                                ]
                            ]
                        ],
                        "config": {
                            "gamma_initializer": {
                                "class_name": "Ones",
                                "config": {}
                            },
                            "moving_mean_initializer": {
                                "class_name": "Zeros",
                                "config": {}
                            },
                            "name": "block_7_depthwise_BN",
                            "epsilon": 0.001,
                            "trainable": true,
                            "center": true,
                            "moving_variance_initializer": {
                                "class_name": "Ones",
                                "config": {}
                            },
                            "beta_initializer": {
                                "class_name": "Zeros",
                                "config": {}
                            },
                            "scale": true,
                            "gamma_regularizer": null,
                            "gamma_constraint": null,
                            "beta_constraint": null,
                            "beta_regularizer": null,
                            "momentum": 0.999,
                            "axis": -1
                        },
                        "name": "block_7_depthwise_BN"
                    },
                    {
                        "class_name": "Activation",
                        "inbound_nodes": [
                            [
                                [
                                    "block_7_depthwise_BN",
                                    0,
                                    0,
                                    {}
                                ]
                            ]
                        ],
                        "config": {
                            "activation": "relu6",
                            "trainable": true,
                            "name": "block_7_depthwise_relu"
                        },
                        "name": "block_7_depthwise_relu"
                    },
                    {
                        "class_name": "Conv2D",
                        "inbound_nodes": [
                            [
                                [
                                    "block_7_depthwise_relu",
                                    0,
                                    0,
                                    {}
                                ]
                            ]
                        ],
                        "config": {
                            "kernel_initializer": {
                                "class_name": "VarianceScaling",
                                "config": {
                                    "distribution": "uniform",
                                    "scale": 1.0,
                                    "seed": null,
                                    "mode": "fan_avg"
                                }
                            },
                            "name": "block_7_project",
                            "kernel_constraint": null,
                            "bias_regularizer": null,
                            "bias_constraint": null,
                            "activation": "linear",
                            "trainable": true,
                            "data_format": "channels_last",
                            "padding": "same",
                            "strides": [
                                1,
                                1
                            ],
                            "dilation_rate": [
                                1,
                                1
                            ],
                            "kernel_regularizer": null,
                            "filters": 64,
                            "bias_initializer": {
                                "class_name": "Zeros",
                                "config": {}
                            },
                            "use_bias": false,
                            "activity_regularizer": null,
                            "kernel_size": [
                                1,
                                1
                            ]
                        },
                        "name": "block_7_project"
                    },
                    {
                        "class_name": "BatchNormalization",
                        "inbound_nodes": [
                            [
                                [
                                    "block_7_project",
                                    0,
                                    0,
                                    {}
                                ]
                            ]
                        ],
                        "config": {
                            "gamma_initializer": {
                                "class_name": "Ones",
                                "config": {}
                            },
                            "moving_mean_initializer": {
                                "class_name": "Zeros",
                                "config": {}
                            },
                            "name": "block_7_project_BN",
                            "epsilon": 0.001,
                            "trainable": true,
                            "center": true,
                            "moving_variance_initializer": {
                                "class_name": "Ones",
                                "config": {}
                            },
                            "beta_initializer": {
                                "class_name": "Zeros",
                                "config": {}
                            },
                            "scale": true,
                            "gamma_regularizer": null,
                            "gamma_constraint": null,
                            "beta_constraint": null,
                            "beta_regularizer": null,
                            "momentum": 0.999,
                            "axis": -1
                        },
                        "name": "block_7_project_BN"
                    },
                    {
                        "class_name": "Add",
                        "inbound_nodes": [
                            [
                                [
                                    "block_6_project_BN",
                                    0,
                                    0,
                                    {}
                                ],
                                [
                                    "block_7_project_BN",
                                    0,
                                    0,
                                    {}
                                ]
                            ]
                        ],
                        "config": {
                            "trainable": true,
                            "name": "block_7_add"
                        },
                        "name": "block_7_add"
                    },
                    {
                        "class_name": "Conv2D",
                        "inbound_nodes": [
                            [
                                [
                                    "block_7_add",
                                    0,
                                    0,
                                    {}
                                ]
                            ]
                        ],
                        "config": {
                            "kernel_initializer": {
                                "class_name": "VarianceScaling",
                                "config": {
                                    "distribution": "uniform",
                                    "scale": 1.0,
                                    "seed": null,
                                    "mode": "fan_avg"
                                }
                            },
                            "name": "block_8_expand",
                            "kernel_constraint": null,
                            "bias_regularizer": null,
                            "bias_constraint": null,
                            "activation": "linear",
                            "trainable": true,
                            "data_format": "channels_last",
                            "padding": "same",
                            "strides": [
                                1,
                                1
                            ],
                            "dilation_rate": [
                                1,
                                1
                            ],
                            "kernel_regularizer": null,
                            "filters": 384,
                            "bias_initializer": {
                                "class_name": "Zeros",
                                "config": {}
                            },
                            "use_bias": false,
                            "activity_regularizer": null,
                            "kernel_size": [
                                1,
                                1
                            ]
                        },
                        "name": "block_8_expand"
                    },
                    {
                        "class_name": "BatchNormalization",
                        "inbound_nodes": [
                            [
                                [
                                    "block_8_expand",
                                    0,
                                    0,
                                    {}
                                ]
                            ]
                        ],
                        "config": {
                            "gamma_initializer": {
                                "class_name": "Ones",
                                "config": {}
                            },
                            "moving_mean_initializer": {
                                "class_name": "Zeros",
                                "config": {}
                            },
                            "name": "block_8_expand_BN",
                            "epsilon": 0.001,
                            "trainable": true,
                            "center": true,
                            "moving_variance_initializer": {
                                "class_name": "Ones",
                                "config": {}
                            },
                            "beta_initializer": {
                                "class_name": "Zeros",
                                "config": {}
                            },
                            "scale": true,
                            "gamma_regularizer": null,
                            "gamma_constraint": null,
                            "beta_constraint": null,
                            "beta_regularizer": null,
                            "momentum": 0.999,
                            "axis": -1
                        },
                        "name": "block_8_expand_BN"
                    },
                    {
                        "class_name": "Activation",
                        "inbound_nodes": [
                            [
                                [
                                    "block_8_expand_BN",
                                    0,
                                    0,
                                    {}
                                ]
                            ]
                        ],
                        "config": {
                            "activation": "relu6",
                            "trainable": true,
                            "name": "block_8_expand_relu"
                        },
                        "name": "block_8_expand_relu"
                    },
                    {
                        "class_name": "DepthwiseConv2D",
                        "inbound_nodes": [
                            [
                                [
                                    "block_8_expand_relu",
                                    0,
                                    0,
                                    {}
                                ]
                            ]
                        ],
                        "config": {
                            "padding": "same",
                            "depth_multiplier": 1,
                            "name": "block_8_depthwise",
                            "bias_regularizer": null,
                            "bias_constraint": null,
                            "activation": "linear",
                            "trainable": true,
                            "data_format": "channels_last",
                            "depthwise_constraint": null,
                            "strides": [
                                1,
                                1
                            ],
                            "dilation_rate": [
                                1,
                                1
                            ],
                            "depthwise_initializer": {
                                "class_name": "VarianceScaling",
                                "config": {
                                    "distribution": "uniform",
                                    "scale": 1.0,
                                    "seed": null,
                                    "mode": "fan_avg"
                                }
                            },
                            "bias_initializer": {
                                "class_name": "Zeros",
                                "config": {}
                            },
                            "depthwise_regularizer": null,
                            "use_bias": false,
                            "activity_regularizer": null,
                            "kernel_size": [
                                3,
                                3
                            ]
                        },
                        "name": "block_8_depthwise"
                    },
                    {
                        "class_name": "BatchNormalization",
                        "inbound_nodes": [
                            [
                                [
                                    "block_8_depthwise",
                                    0,
                                    0,
                                    {}
                                ]
                            ]
                        ],
                        "config": {
                            "gamma_initializer": {
                                "class_name": "Ones",
                                "config": {}
                            },
                            "moving_mean_initializer": {
                                "class_name": "Zeros",
                                "config": {}
                            },
                            "name": "block_8_depthwise_BN",
                            "epsilon": 0.001,
                            "trainable": true,
                            "center": true,
                            "moving_variance_initializer": {
                                "class_name": "Ones",
                                "config": {}
                            },
                            "beta_initializer": {
                                "class_name": "Zeros",
                                "config": {}
                            },
                            "scale": true,
                            "gamma_regularizer": null,
                            "gamma_constraint": null,
                            "beta_constraint": null,
                            "beta_regularizer": null,
                            "momentum": 0.999,
                            "axis": -1
                        },
                        "name": "block_8_depthwise_BN"
                    },
                    {
                        "class_name": "Activation",
                        "inbound_nodes": [
                            [
                                [
                                    "block_8_depthwise_BN",
                                    0,
                                    0,
                                    {}
                                ]
                            ]
                        ],
                        "config": {
                            "activation": "relu6",
                            "trainable": true,
                            "name": "block_8_depthwise_relu"
                        },
                        "name": "block_8_depthwise_relu"
                    },
                    {
                        "class_name": "Conv2D",
                        "inbound_nodes": [
                            [
                                [
                                    "block_8_depthwise_relu",
                                    0,
                                    0,
                                    {}
                                ]
                            ]
                        ],
                        "config": {
                            "kernel_initializer": {
                                "class_name": "VarianceScaling",
                                "config": {
                                    "distribution": "uniform",
                                    "scale": 1.0,
                                    "seed": null,
                                    "mode": "fan_avg"
                                }
                            },
                            "name": "block_8_project",
                            "kernel_constraint": null,
                            "bias_regularizer": null,
                            "bias_constraint": null,
                            "activation": "linear",
                            "trainable": true,
                            "data_format": "channels_last",
                            "padding": "same",
                            "strides": [
                                1,
                                1
                            ],
                            "dilation_rate": [
                                1,
                                1
                            ],
                            "kernel_regularizer": null,
                            "filters": 64,
                            "bias_initializer": {
                                "class_name": "Zeros",
                                "config": {}
                            },
                            "use_bias": false,
                            "activity_regularizer": null,
                            "kernel_size": [
                                1,
                                1
                            ]
                        },
                        "name": "block_8_project"
                    },
                    {
                        "class_name": "BatchNormalization",
                        "inbound_nodes": [
                            [
                                [
                                    "block_8_project",
                                    0,
                                    0,
                                    {}
                                ]
                            ]
                        ],
                        "config": {
                            "gamma_initializer": {
                                "class_name": "Ones",
                                "config": {}
                            },
                            "moving_mean_initializer": {
                                "class_name": "Zeros",
                                "config": {}
                            },
                            "name": "block_8_project_BN",
                            "epsilon": 0.001,
                            "trainable": true,
                            "center": true,
                            "moving_variance_initializer": {
                                "class_name": "Ones",
                                "config": {}
                            },
                            "beta_initializer": {
                                "class_name": "Zeros",
                                "config": {}
                            },
                            "scale": true,
                            "gamma_regularizer": null,
                            "gamma_constraint": null,
                            "beta_constraint": null,
                            "beta_regularizer": null,
                            "momentum": 0.999,
                            "axis": -1
                        },
                        "name": "block_8_project_BN"
                    },
                    {
                        "class_name": "Add",
                        "inbound_nodes": [
                            [
                                [
                                    "block_7_add",
                                    0,
                                    0,
                                    {}
                                ],
                                [
                                    "block_8_project_BN",
                                    0,
                                    0,
                                    {}
                                ]
                            ]
                        ],
                        "config": {
                            "trainable": true,
                            "name": "block_8_add"
                        },
                        "name": "block_8_add"
                    },
                    {
                        "class_name": "Conv2D",
                        "inbound_nodes": [
                            [
                                [
                                    "block_8_add",
                                    0,
                                    0,
                                    {}
                                ]
                            ]
                        ],
                        "config": {
                            "kernel_initializer": {
                                "class_name": "VarianceScaling",
                                "config": {
                                    "distribution": "uniform",
                                    "scale": 1.0,
                                    "seed": null,
                                    "mode": "fan_avg"
                                }
                            },
                            "name": "block_9_expand",
                            "kernel_constraint": null,
                            "bias_regularizer": null,
                            "bias_constraint": null,
                            "activation": "linear",
                            "trainable": true,
                            "data_format": "channels_last",
                            "padding": "same",
                            "strides": [
                                1,
                                1
                            ],
                            "dilation_rate": [
                                1,
                                1
                            ],
                            "kernel_regularizer": null,
                            "filters": 384,
                            "bias_initializer": {
                                "class_name": "Zeros",
                                "config": {}
                            },
                            "use_bias": false,
                            "activity_regularizer": null,
                            "kernel_size": [
                                1,
                                1
                            ]
                        },
                        "name": "block_9_expand"
                    },
                    {
                        "class_name": "BatchNormalization",
                        "inbound_nodes": [
                            [
                                [
                                    "block_9_expand",
                                    0,
                                    0,
                                    {}
                                ]
                            ]
                        ],
                        "config": {
                            "gamma_initializer": {
                                "class_name": "Ones",
                                "config": {}
                            },
                            "moving_mean_initializer": {
                                "class_name": "Zeros",
                                "config": {}
                            },
                            "name": "block_9_expand_BN",
                            "epsilon": 0.001,
                            "trainable": true,
                            "center": true,
                            "moving_variance_initializer": {
                                "class_name": "Ones",
                                "config": {}
                            },
                            "beta_initializer": {
                                "class_name": "Zeros",
                                "config": {}
                            },
                            "scale": true,
                            "gamma_regularizer": null,
                            "gamma_constraint": null,
                            "beta_constraint": null,
                            "beta_regularizer": null,
                            "momentum": 0.999,
                            "axis": -1
                        },
                        "name": "block_9_expand_BN"
                    },
                    {
                        "class_name": "Activation",
                        "inbound_nodes": [
                            [
                                [
                                    "block_9_expand_BN",
                                    0,
                                    0,
                                    {}
                                ]
                            ]
                        ],
                        "config": {
                            "activation": "relu6",
                            "trainable": true,
                            "name": "block_9_expand_relu"
                        },
                        "name": "block_9_expand_relu"
                    },
                    {
                        "class_name": "DepthwiseConv2D",
                        "inbound_nodes": [
                            [
                                [
                                    "block_9_expand_relu",
                                    0,
                                    0,
                                    {}
                                ]
                            ]
                        ],
                        "config": {
                            "padding": "same",
                            "depth_multiplier": 1,
                            "name": "block_9_depthwise",
                            "bias_regularizer": null,
                            "bias_constraint": null,
                            "activation": "linear",
                            "trainable": true,
                            "data_format": "channels_last",
                            "depthwise_constraint": null,
                            "strides": [
                                1,
                                1
                            ],
                            "dilation_rate": [
                                1,
                                1
                            ],
                            "depthwise_initializer": {
                                "class_name": "VarianceScaling",
                                "config": {
                                    "distribution": "uniform",
                                    "scale": 1.0,
                                    "seed": null,
                                    "mode": "fan_avg"
                                }
                            },
                            "bias_initializer": {
                                "class_name": "Zeros",
                                "config": {}
                            },
                            "depthwise_regularizer": null,
                            "use_bias": false,
                            "activity_regularizer": null,
                            "kernel_size": [
                                3,
                                3
                            ]
                        },
                        "name": "block_9_depthwise"
                    },
                    {
                        "class_name": "BatchNormalization",
                        "inbound_nodes": [
                            [
                                [
                                    "block_9_depthwise",
                                    0,
                                    0,
                                    {}
                                ]
                            ]
                        ],
                        "config": {
                            "gamma_initializer": {
                                "class_name": "Ones",
                                "config": {}
                            },
                            "moving_mean_initializer": {
                                "class_name": "Zeros",
                                "config": {}
                            },
                            "name": "block_9_depthwise_BN",
                            "epsilon": 0.001,
                            "trainable": true,
                            "center": true,
                            "moving_variance_initializer": {
                                "class_name": "Ones",
                                "config": {}
                            },
                            "beta_initializer": {
                                "class_name": "Zeros",
                                "config": {}
                            },
                            "scale": true,
                            "gamma_regularizer": null,
                            "gamma_constraint": null,
                            "beta_constraint": null,
                            "beta_regularizer": null,
                            "momentum": 0.999,
                            "axis": -1
                        },
                        "name": "block_9_depthwise_BN"
                    },
                    {
                        "class_name": "Activation",
                        "inbound_nodes": [
                            [
                                [
                                    "block_9_depthwise_BN",
                                    0,
                                    0,
                                    {}
                                ]
                            ]
                        ],
                        "config": {
                            "activation": "relu6",
                            "trainable": true,
                            "name": "block_9_depthwise_relu"
                        },
                        "name": "block_9_depthwise_relu"
                    },
                    {
                        "class_name": "Conv2D",
                        "inbound_nodes": [
                            [
                                [
                                    "block_9_depthwise_relu",
                                    0,
                                    0,
                                    {}
                                ]
                            ]
                        ],
                        "config": {
                            "kernel_initializer": {
                                "class_name": "VarianceScaling",
                                "config": {
                                    "distribution": "uniform",
                                    "scale": 1.0,
                                    "seed": null,
                                    "mode": "fan_avg"
                                }
                            },
                            "name": "block_9_project",
                            "kernel_constraint": null,
                            "bias_regularizer": null,
                            "bias_constraint": null,
                            "activation": "linear",
                            "trainable": true,
                            "data_format": "channels_last",
                            "padding": "same",
                            "strides": [
                                1,
                                1
                            ],
                            "dilation_rate": [
                                1,
                                1
                            ],
                            "kernel_regularizer": null,
                            "filters": 64,
                            "bias_initializer": {
                                "class_name": "Zeros",
                                "config": {}
                            },
                            "use_bias": false,
                            "activity_regularizer": null,
                            "kernel_size": [
                                1,
                                1
                            ]
                        },
                        "name": "block_9_project"
                    },
                    {
                        "class_name": "BatchNormalization",
                        "inbound_nodes": [
                            [
                                [
                                    "block_9_project",
                                    0,
                                    0,
                                    {}
                                ]
                            ]
                        ],
                        "config": {
                            "gamma_initializer": {
                                "class_name": "Ones",
                                "config": {}
                            },
                            "moving_mean_initializer": {
                                "class_name": "Zeros",
                                "config": {}
                            },
                            "name": "block_9_project_BN",
                            "epsilon": 0.001,
                            "trainable": true,
                            "center": true,
                            "moving_variance_initializer": {
                                "class_name": "Ones",
                                "config": {}
                            },
                            "beta_initializer": {
                                "class_name": "Zeros",
                                "config": {}
                            },
                            "scale": true,
                            "gamma_regularizer": null,
                            "gamma_constraint": null,
                            "beta_constraint": null,
                            "beta_regularizer": null,
                            "momentum": 0.999,
                            "axis": -1
                        },
                        "name": "block_9_project_BN"
                    },
                    {
                        "class_name": "Add",
                        "inbound_nodes": [
                            [
                                [
                                    "block_8_add",
                                    0,
                                    0,
                                    {}
                                ],
                                [
                                    "block_9_project_BN",
                                    0,
                                    0,
                                    {}
                                ]
                            ]
                        ],
                        "config": {
                            "trainable": true,
                            "name": "block_9_add"
                        },
                        "name": "block_9_add"
                    },
                    {
                        "class_name": "Conv2D",
                        "inbound_nodes": [
                            [
                                [
                                    "block_9_add",
                                    0,
                                    0,
                                    {}
                                ]
                            ]
                        ],
                        "config": {
                            "kernel_initializer": {
                                "class_name": "VarianceScaling",
                                "config": {
                                    "distribution": "uniform",
                                    "scale": 1.0,
                                    "seed": null,
                                    "mode": "fan_avg"
                                }
                            },
                            "name": "block_10_expand",
                            "kernel_constraint": null,
                            "bias_regularizer": null,
                            "bias_constraint": null,
                            "activation": "linear",
                            "trainable": true,
                            "data_format": "channels_last",
                            "padding": "same",
                            "strides": [
                                1,
                                1
                            ],
                            "dilation_rate": [
                                1,
                                1
                            ],
                            "kernel_regularizer": null,
                            "filters": 384,
                            "bias_initializer": {
                                "class_name": "Zeros",
                                "config": {}
                            },
                            "use_bias": false,
                            "activity_regularizer": null,
                            "kernel_size": [
                                1,
                                1
                            ]
                        },
                        "name": "block_10_expand"
                    },
                    {
                        "class_name": "BatchNormalization",
                        "inbound_nodes": [
                            [
                                [
                                    "block_10_expand",
                                    0,
                                    0,
                                    {}
                                ]
                            ]
                        ],
                        "config": {
                            "gamma_initializer": {
                                "class_name": "Ones",
                                "config": {}
                            },
                            "moving_mean_initializer": {
                                "class_name": "Zeros",
                                "config": {}
                            },
                            "name": "block_10_expand_BN",
                            "epsilon": 0.001,
                            "trainable": true,
                            "center": true,
                            "moving_variance_initializer": {
                                "class_name": "Ones",
                                "config": {}
                            },
                            "beta_initializer": {
                                "class_name": "Zeros",
                                "config": {}
                            },
                            "scale": true,
                            "gamma_regularizer": null,
                            "gamma_constraint": null,
…
                },
                {
                    "dtype": "float32",
                    "shape": [
                        960
                    ],
                    "name": "block_15_expand_BN/moving_mean"
                },
                {
                    "dtype": "float32",
                    "shape": [
                        960
                    ],
                    "name": "block_15_expand_BN/moving_variance"
                }
            ]
        },
        {
            "paths": [
                "group38-shard1of1"
            ],
            "weights": [
                {
                    "dtype": "float32",
                    "shape": [
                        1,
                        1,
                        960,
                        160
                    ],
                    "name": "block_15_project/kernel"
                }
            ]
        },
        {
            "paths": [
                "group39-shard1of1"
            ],
            "weights": [
                {
                    "dtype": "float32",
                    "shape": [
                        160
                    ],
                    "name": "block_15_project_BN/gamma"
                },
                {
                    "dtype": "float32",
                    "shape": [
                        160
                    ],
                    "name": "block_15_project_BN/beta"
                },
                {
                    "dtype": "float32",
                    "shape": [
                        160
                    ],
                    "name": "block_15_project_BN/moving_mean"
                },
                {
                    "dtype": "float32",
                    "shape": [
                        160
                    ],
                    "name": "block_15_project_BN/moving_variance"
                }
            ]
        },
        {
            "paths": [
                "group40-shard1of1"
            ],
            "weights": [
                {
                    "dtype": "float32",
                    "shape": [
                        3,
                        3,
                        960,
                        1
                    ],
                    "name": "block_16_depthwise/depthwise_kernel"
                }
            ]
        },
        {
            "paths": [
                "group41-shard1of1"
            ],
            "weights": [
                {
                    "dtype": "float32",
                    "shape": [
                        960
                    ],
                    "name": "block_16_depthwise_BN/gamma"
                },
                {
                    "dtype": "float32",
                    "shape": [
                        960
                    ],
                    "name": "block_16_depthwise_BN/beta"
                },
                {
                    "dtype": "float32",
                    "shape": [
                        960
                    ],
                    "name": "block_16_depthwise_BN/moving_mean"
                },
                {
                    "dtype": "float32",
                    "shape": [
                        960
                    ],
                    "name": "block_16_depthwise_BN/moving_variance"
                }
            ]
        },
        {
            "paths": [
                "group42-shard1of1"
            ],
            "weights": [
                {
                    "dtype": "float32",
                    "shape": [
                        1,
                        1,
                        160,
                        960
                    ],
                    "name": "block_16_expand/kernel"
                }
            ]
        },
        {
            "paths": [
                "group43-shard1of1"
            ],
            "weights": [
                {
                    "dtype": "float32",
                    "shape": [
                        960
                    ],
                    "name": "block_16_expand_BN/gamma"
                },
                {
                    "dtype": "float32",
                    "shape": [
                        960
                    ],
                    "name": "block_16_expand_BN/beta"
                },
                {
                    "dtype": "float32",
                    "shape": [
                        960
                    ],
                    "name": "block_16_expand_BN/moving_mean"
                },
                {
                    "dtype": "float32",
                    "shape": [
                        960
                    ],
                    "name": "block_16_expand_BN/moving_variance"
                }
            ]
        },
        {
            "paths": [
                "group44-shard1of1"
            ],
            "weights": [
                {
                    "dtype": "float32",
                    "shape": [
                        1,
                        1,
                        960,
                        320
                    ],
                    "name": "block_16_project/kernel"
                }
            ]
        },
        {
            "paths": [
                "group45-shard1of1"
            ],
            "weights": [
                {
                    "dtype": "float32",
                    "shape": [
                        320
                    ],
                    "name": "block_16_project_BN/gamma"
                },
                {
                    "dtype": "float32",
                    "shape": [
                        320
                    ],
                    "name": "block_16_project_BN/beta"
                },
                {
                    "dtype": "float32",
                    "shape": [
                        320
                    ],
                    "name": "block_16_project_BN/moving_mean"
                },
                {
                    "dtype": "float32",
                    "shape": [
                        320
                    ],
                    "name": "block_16_project_BN/moving_variance"
                }
            ]
        },
        {
            "paths": [
                "group46-shard1of1"
            ],
            "weights": [
                {
                    "dtype": "float32",
                    "shape": [
                        3,
                        3,
                        96,
                        1
                    ],
                    "name": "block_1_depthwise/depthwise_kernel"
                }
            ]
        },
        {
            "paths": [
                "group47-shard1of1"
            ],
            "weights": [
                {
                    "dtype": "float32",
                    "shape": [
                        96
                    ],
                    "name": "block_1_depthwise_BN/gamma"
                },
                {
                    "dtype": "float32",
                    "shape": [
                        96
                    ],
                    "name": "block_1_depthwise_BN/beta"
                },
                {
                    "dtype": "float32",
                    "shape": [
                        96
                    ],
                    "name": "block_1_depthwise_BN/moving_mean"
                },
                {
                    "dtype": "float32",
                    "shape": [
                        96
                    ],
                    "name": "block_1_depthwise_BN/moving_variance"
                }
            ]
        },
        {
            "paths": [
                "group48-shard1of1"
            ],
            "weights": [
                {
                    "dtype": "float32",
                    "shape": [
                        1,
                        1,
                        16,
                        96
                    ],
                    "name": "block_1_expand/kernel"
                }
            ]
        },
        {
            "paths": [
                "group49-shard1of1"
            ],
            "weights": [
                {
                    "dtype": "float32",
                    "shape": [
                        96
                    ],
                    "name": "block_1_expand_BN/gamma"
                },
                {
                    "dtype": "float32",
                    "shape": [
                        96
                    ],
                    "name": "block_1_expand_BN/beta"
                },
                {
                    "dtype": "float32",
                    "shape": [
                        96
                    ],
                    "name": "block_1_expand_BN/moving_mean"
                },
                {
                    "dtype": "float32",
                    "shape": [
                        96
                    ],
                    "name": "block_1_expand_BN/moving_variance"
                }
            ]
        },
        {
            "paths": [
                "group50-shard1of1"
            ],
            "weights": [
                {
                    "dtype": "float32",
                    "shape": [
                        1,
                        1,
                        96,
                        24
                    ],
                    "name": "block_1_project/kernel"
                }
            ]
        },
        {
            "paths": [
                "group51-shard1of1"
            ],
            "weights": [
                {
                    "dtype": "float32",
                    "shape": [
                        24
                    ],
                    "name": "block_1_project_BN/gamma"
                },
                {
                    "dtype": "float32",
                    "shape": [
                        24
                    ],
                    "name": "block_1_project_BN/beta"
                },
                {
                    "dtype": "float32",
                    "shape": [
                        24
                    ],
                    "name": "block_1_project_BN/moving_mean"
                },
                {
                    "dtype": "float32",
                    "shape": [
                        24
                    ],
                    "name": "block_1_project_BN/moving_variance"
                }
            ]
        },
        {
            "paths": [
                "group52-shard1of1"
            ],
            "weights": [
                {
                    "dtype": "float32",
                    "shape": [
                        3,
                        3,
                        144,
                        1
                    ],
                    "name": "block_2_depthwise/depthwise_kernel"
                }
            ]
        },
        {
            "paths": [
                "group53-shard1of1"
            ],
            "weights": [
                {
                    "dtype": "float32",
                    "shape": [
                        144
                    ],
                    "name": "block_2_depthwise_BN/gamma"
                },
                {
                    "dtype": "float32",
                    "shape": [
                        144
                    ],
                    "name": "block_2_depthwise_BN/beta"
                },
                {
                    "dtype": "float32",
                    "shape": [
                        144
                    ],
                    "name": "block_2_depthwise_BN/moving_mean"
                },
                {
                    "dtype": "float32",
                    "shape": [
                        144
                    ],
                    "name": "block_2_depthwise_BN/moving_variance"
                }
            ]
        },
        {
            "paths": [
                "group54-shard1of1"
            ],
            "weights": [
                {
                    "dtype": "float32",
                    "shape": [
                        1,
                        1,
                        24,
                        144
                    ],
                    "name": "block_2_expand/kernel"
                }
            ]
        },
        {
            "paths": [
                "group55-shard1of1"
            ],
            "weights": [
                {
                    "dtype": "float32",
                    "shape": [
                        144
                    ],
                    "name": "block_2_expand_BN/gamma"
                },
                {
                    "dtype": "float32",
                    "shape": [
                        144
                    ],
                    "name": "block_2_expand_BN/beta"
                },
                {
                    "dtype": "float32",
                    "shape": [
                        144
                    ],
                    "name": "block_2_expand_BN/moving_mean"
                },
                {
                    "dtype": "float32",
                    "shape": [
                        144
                    ],
                    "name": "block_2_expand_BN/moving_variance"
                }
            ]
        },
        {
            "paths": [
                "group56-shard1of1"
            ],
            "weights": [
                {
                    "dtype": "float32",
                    "shape": [
                        1,
                        1,
                        144,
                        24
                    ],
                    "name": "block_2_project/kernel"
                }
            ]
        },
        {
            "paths": [
                "group57-shard1of1"
            ],
            "weights": [
                {
                    "dtype": "float32",
                    "shape": [
                        24
                    ],
                    "name": "block_2_project_BN/gamma"
                },
                {
                    "dtype": "float32",
                    "shape": [
                        24
                    ],
                    "name": "block_2_project_BN/beta"
                },
                {
                    "dtype": "float32",
                    "shape": [
                        24
                    ],
                    "name": "block_2_project_BN/moving_mean"
                },
                {
                    "dtype": "float32",
                    "shape": [
                        24
                    ],
                    "name": "block_2_project_BN/moving_variance"
                }
            ]
        },
        {
            "paths": [
                "group58-shard1of1"
            ],
            "weights": [
                {
                    "dtype": "float32",
                    "shape": [
                        3,
                        3,
                        144,
                        1
                    ],
                    "name": "block_3_depthwise/depthwise_kernel"
                }
            ]
        },
        {
            "paths": [
                "group59-shard1of1"
            ],
            "weights": [
                {
                    "dtype": "float32",
                    "shape": [
                        144
                    ],
                    "name": "block_3_depthwise_BN/gamma"
                },
                {
                    "dtype": "float32",
                    "shape": [
                        144
                    ],
                    "name": "block_3_depthwise_BN/beta"
                },
                {
                    "dtype": "float32",
                    "shape": [
                        144
                    ],
                    "name": "block_3_depthwise_BN/moving_mean"
                },
                {
                    "dtype": "float32",
                    "shape": [
                        144
                    ],
                    "name": "block_3_depthwise_BN/moving_variance"
                }
            ]
        },
        {
            "paths": [
                "group60-shard1of1"
            ],
            "weights": [
                {
                    "dtype": "float32",
                    "shape": [
                        1,
                        1,
                        24,
                        144
                    ],
                    "name": "block_3_expand/kernel"
                }
            ]
        },
        {
            "paths": [
                "group61-shard1of1"
            ],
            "weights": [
                {
                    "dtype": "float32",
                    "shape": [
                        144
                    ],
                    "name": "block_3_expand_BN/gamma"
                },
                {
                    "dtype": "float32",
                    "shape": [
                        144
                    ],
                    "name": "block_3_expand_BN/beta"
                },
                {
                    "dtype": "float32",
                    "shape": [
                        144
                    ],
                    "name": "block_3_expand_BN/moving_mean"
                },
                {
                    "dtype": "float32",
                    "shape": [
                        144
                    ],
                    "name": "block_3_expand_BN/moving_variance"
                }
            ]
        },
        {
            "paths": [
                "group62-shard1of1"
            ],
            "weights": [
                {
                    "dtype": "float32",
                    "shape": [
                        1,
                        1,
                        144,
                        32
                    ],
                    "name": "block_3_project/kernel"
                }
            ]
        },
        {
            "paths": [
                "group63-shard1of1"
            ],
            "weights": [
                {
                    "dtype": "float32",
                    "shape": [
                        32
                    ],
                    "name": "block_3_project_BN/gamma"
                },
                {
                    "dtype": "float32",
                    "shape": [
                        32
                    ],
                    "name": "block_3_project_BN/beta"
                },
                {
                    "dtype": "float32",
                    "shape": [
                        32
                    ],
                    "name": "block_3_project_BN/moving_mean"
                },
                {
                    "dtype": "float32",
                    "shape": [
                        32
                    ],
                    "name": "block_3_project_BN/moving_variance"
                }
            ]
        },
        {
            "paths": [
                "group64-shard1of1"
            ],
            "weights": [
                {
                    "dtype": "float32",
                    "shape": [
                        3,
                        3,
                        192,
                        1
                    ],
                    "name": "block_4_depthwise/depthwise_kernel"
                }
            ]
        },
        {
            "paths": [
                "group65-shard1of1"
            ],
            "weights": [
                {
                    "dtype": "float32",
                    "shape": [
                        192
                    ],
                    "name": "block_4_depthwise_BN/gamma"
                },
                {
                    "dtype": "float32",
                    "shape": [
                        192
                    ],
                    "name": "block_4_depthwise_BN/beta"
                },
                {
                    "dtype": "float32",
                    "shape": [
                        192
                    ],
                    "name": "block_4_depthwise_BN/moving_mean"
                },
                {
                    "dtype": "float32",
                    "shape": [
                        192
                    ],
                    "name": "block_4_depthwise_BN/moving_variance"
                }
            ]
        },
        {
            "paths": [
                "group66-shard1of1"
            ],
            "weights": [
                {
                    "dtype": "float32",
                    "shape": [
                        1,
                        1,
                        32,
                        192
                    ],
                    "name": "block_4_expand/kernel"
                }
            ]
        },
        {
            "paths": [
                "group67-shard1of1"
            ],
            "weights": [
                {
                    "dtype": "float32",
                    "shape": [
                        192
                    ],
                    "name": "block_4_expand_BN/gamma"
                },
                {
                    "dtype": "float32",
                    "shape": [
                        192
                    ],
                    "name": "block_4_expand_BN/beta"
                },
                {
                    "dtype": "float32",
                    "shape": [
                        192
                    ],
                    "name": "block_4_expand_BN/moving_mean"
                },
                {
                    "dtype": "float32",
                    "shape": [
                        192
                    ],
                    "name": "block_4_expand_BN/moving_variance"
                }
            ]
        },
        {
            "paths": [
                "group68-shard1of1"
            ],
            "weights": [
                {
                    "dtype": "float32",
                    "shape": [
                        1,
                        1,
                        192,
                        32
                    ],
                    "name": "block_4_project/kernel"
                }
            ]
        },
        {
            "paths": [
                "group69-shard1of1"
            ],
            "weights": [
                {
                    "dtype": "float32",
                    "shape": [
                        32
                    ],
                    "name": "block_4_project_BN/gamma"
                },
                {
                    "dtype": "float32",
                    "shape": [
                        32
                    ],
                    "name": "block_4_project_BN/beta"
                },
                {
                    "dtype": "float32",
                    "shape": [
                        32
                    ],
                    "name": "block_4_project_BN/moving_mean"
                },
                {
                    "dtype": "float32",
                    "shape": [
                        32
                    ],
                    "name": "block_4_project_BN/moving_variance"
                }
            ]
        },
        {
            "paths": [
                "group70-shard1of1"
            ],
            "weights": [
                {
                    "dtype": "float32",
                    "shape": [
                        3,
                        3,
                        192,
                        1
                    ],
                    "name": "block_5_depthwise/depthwise_kernel"
                }
            ]
        },
        {
            "paths": [
                "group71-shard1of1"
            ],
            "weights": [
                {
                    "dtype": "float32",
                    "shape": [
                        192
                    ],
                    "name": "block_5_depthwise_BN/gamma"
                },
                {
                    "dtype": "float32",
                    "shape": [
                        192
                    ],
                    "name": "block_5_depthwise_BN/beta"
                },
                {
                    "dtype": "float32",
                    "shape": [
                        192
                    ],
                    "name": "block_5_depthwise_BN/moving_mean"
                },
                {
                    "dtype": "float32",
                    "shape": [
                        192
                    ],
                    "name": "block_5_depthwise_BN/moving_variance"
                }
            ]
        },
        {
            "paths": [
                "group72-shard1of1"
            ],
            "weights": [
                {
                    "dtype": "float32",
                    "shape": [
                        1,
                        1,
                        32,
                        192
                    ],
                    "name": "block_5_expand/kernel"
                }
            ]
        },
        {
            "paths": [
                "group73-shard1of1"
            ],
            "weights": [
                {
                    "dtype": "float32",
                    "shape": [
                        192
                    ],
                    "name": "block_5_expand_BN/gamma"
                },
                {
                    "dtype": "float32",
                    "shape": [
                        192
                    ],
                    "name": "block_5_expand_BN/beta"
                },
                {
                    "dtype": "float32",
                    "shape": [
                        192
                    ],
                    "name": "block_5_expand_BN/moving_mean"
                },
                {
                    "dtype": "float32",
                    "shape": [
                        192
                    ],
                    "name": "block_5_expand_BN/moving_variance"
                }
            ]
        },
        {
            "paths": [
                "group74-shard1of1"
            ],
            "weights": [
                {
                    "dtype": "float32",
                    "shape": [
                        1,
                        1,
                        192,
                        32
                    ],
                    "name": "block_5_project/kernel"
                }
            ]
        },
        {
            "paths": [
                "group75-shard1of1"
            ],
            "weights": [
                {
                    "dtype": "float32",
                    "shape": [
                        32
                    ],
                    "name": "block_5_project_BN/gamma"
                },
                {
                    "dtype": "float32",
                    "shape": [
                        32
                    ],
                    "name": "block_5_project_BN/beta"
                },
                {
                    "dtype": "float32",
                    "shape": [
                        32
                    ],
                    "name": "block_5_project_BN/moving_mean"
                },
                {
                    "dtype": "float32",
                    "shape": [
                        32
                    ],
                    "name": "block_5_project_BN/moving_variance"
                }
            ]
        },
        {
            "paths": [
                "group76-shard1of1"
            ],
            "weights": [
                {
                    "dtype": "float32",
                    "shape": [
                        3,
                        3,
                        192,
                        1
                    ],
                    "name": "block_6_depthwise/depthwise_kernel"
                }
            ]
        },
        {
            "paths": [
                "group77-shard1of1"
            ],
            "weights": [
                {
                    "dtype": "float32",
                    "shape": [
                        192
                    ],
                    "name": "block_6_depthwise_BN/gamma"
                },
                {
                    "dtype": "float32",
                    "shape": [
                        192
                    ],
                    "name": "block_6_depthwise_BN/beta"
                },
                {
                    "dtype": "float32",
                    "shape": [
                        192
                    ],
                    "name": "block_6_depthwise_BN/moving_mean"
                },
                {
                    "dtype": "float32",
                    "shape": [
                        192
                    ],
                    "name": "block_6_depthwise_BN/moving_variance"
                }
            ]
        },
        {
            "paths": [
                "group78-shard1of1"
            ],
            "weights": [
                {
                    "dtype": "float32",
                    "shape": [
                        1,
                        1,
                        32,
                        192
                    ],
                    "name": "block_6_expand/kernel"
                }
            ]
        },
        {
            "paths": [
                "group79-shard1of1"
            ],
            "weights": [
                {
                    "dtype": "float32",
                    "shape": [
                        192
                    ],
                    "name": "block_6_expand_BN/gamma"
                },
                {
                    "dtype": "float32",
                    "shape": [
                        192
                    ],
                    "name": "block_6_expand_BN/beta"
                },
                {
                    "dtype": "float32",
                    "shape": [
                        192
                    ],
                    "name": "block_6_expand_BN/moving_mean"
                },
                {
                    "dtype": "float32",
                    "shape": [
                        192
                    ],
                    "name": "block_6_expand_BN/moving_variance"
                }
            ]
        },
        {
            "paths": [
                "group80-shard1of1"
            ],
            "weights": [
                {
                    "dtype": "float32",
                    "shape": [
                        1,
                        1,
                        192,
                        64
                    ],
                    "name": "block_6_project/kernel"
                }
            ]
        },
        {
            "paths": [
                "group81-shard1of1"
            ],
            "weights": [
                {
                    "dtype": "float32",
                    "shape": [
                        64
                    ],
                    "name": "block_6_project_BN/gamma"
                },
                {
                    "dtype": "float32",
                    "shape": [
                        64
                    ],
                    "name": "block_6_project_BN/beta"
                },
                {
                    "dtype": "float32",
                    "shape": [
                        64
                    ],
                    "name": "block_6_project_BN/moving_mean"
                },
                {
                    "dtype": "float32",
                    "shape": [
                        64
                    ],
                    "name": "block_6_project_BN/moving_variance"
                }
            ]
        },
        {
            "paths": [
                "group82-shard1of1"
            ],
            "weights": [
                {
                    "dtype": "float32",
                    "shape": [
                        3,
                        3,
                        384,
                        1
                    ],
                    "name": "block_7_depthwise/depthwise_kernel"
                }
            ]
        },
        {
            "paths": [
                "group83-shard1of1"
            ],
            "weights": [
                {
                    "dtype": "float32",
                    "shape": [
                        384
                    ],
                    "name": "block_7_depthwise_BN/gamma"
                },
                {
                    "dtype": "float32",
                    "shape": [
                        384
                    ],
                    "name": "block_7_depthwise_BN/beta"
                },
                {
                    "dtype": "float32",
                    "shape": [
                        384
                    ],
                    "name": "block_7_depthwise_BN/moving_mean"
                },
                {
                    "dtype": "float32",
                    "shape": [
                        384
                    ],
                    "name": "block_7_depthwise_BN/moving_variance"
                }
            ]
        },
        {
            "paths": [
                "group84-shard1of1"
            ],
            "weights": [
                {
                    "dtype": "float32",
                    "shape": [
                        1,
                        1,
                        64,
                        384
                    ],
                    "name": "block_7_expand/kernel"
                }
            ]
        },
        {
            "paths": [
                "group85-shard1of1"
            ],
            "weights": [
                {
                    "dtype": "float32",
                    "shape": [
                        384
                    ],
                    "name": "block_7_expand_BN/gamma"
                },
                {
                    "dtype": "float32",
                    "shape": [
                        384
                    ],
                    "name": "block_7_expand_BN/beta"
                },
                {
                    "dtype": "float32",
                    "shape": [
                        384
                    ],
                    "name": "block_7_expand_BN/moving_mean"
                },
                {
                    "dtype": "float32",
                    "shape": [
                        384
                    ],
                    "name": "block_7_expand_BN/moving_variance"
                }
            ]
        },
        {
            "paths": [
                "group86-shard1of1"
            ],
            "weights": [
                {
                    "dtype": "float32",
                    "shape": [
                        1,
                        1,
                        384,
                        64
                    ],
                    "name": "block_7_project/kernel"
                }
            ]
        },
        {
            "paths": [
                "group87-shard1of1"
            ],
            "weights": [
                {
                    "dtype": "float32",
                    "shape": [
                        64
                    ],
                    "name": "block_7_project_BN/gamma"
                },
                {
                    "dtype": "float32",
                    "shape": [
                        64
                    ],
                    "name": "block_7_project_BN/beta"
                },
                {
                    "dtype": "float32",
                    "shape": [
                        64
                    ],
                    "name": "block_7_project_BN/moving_mean"
                },
                {
                    "dtype": "float32",
                    "shape": [
                        64
                    ],
                    "name": "block_7_project_BN/moving_variance"
                }
            ]
        },
        {
            "paths": [
                "group88-shard1of1"
            ],
            "weights": [
                {
                    "dtype": "float32",
                    "shape": [
                        3,
                        3,
                        384,
                        1
                    ],
                    "name": "block_8_depthwise/depthwise_kernel"
                }
            ]
        },
        {
            "paths": [
                "group89-shard1of1"
            ],
            "weights": [
                {
                    "dtype": "float32",
                    "shape": [
                        384
                    ],
                    "name": "block_8_depthwise_BN/gamma"
                },
                {
                    "dtype": "float32",
                    "shape": [
                        384
                    ],
                    "name": "block_8_depthwise_BN/beta"
                },
                {
                    "dtype": "float32",
                    "shape": [
                        384
                    ],
                    "name": "block_8_depthwise_BN/moving_mean"
                },
                {
                    "dtype": "float32",
                    "shape": [
                        384
                    ],
                    "name": "block_8_depthwise_BN/moving_variance"
                }
            ]
        },
        {
            "paths": [
                "group90-shard1of1"
            ],
            "weights": [
                {
                    "dtype": "float32",
                    "shape": [
                        1,
                        1,
                        64,
                        384
                    ],
                    "name": "block_8_expand/kernel"
                }
            ]
        },
        {
            "paths": [
                "group91-shard1of1"
            ],
            "weights": [
                {
                    "dtype": "float32",
                    "shape": [
                        384
                    ],
                    "name": "block_8_expand_BN/gamma"
                },
                {
                    "dtype": "float32",
                    "shape": [
                        384
                    ],
                    "name": "block_8_expand_BN/beta"
                },
                {
                    "dtype": "float32",
                    "shape": [
                        384
                    ],
                    "name": "block_8_expand_BN/moving_mean"
                },
                {
                    "dtype": "float32",
                    "shape": [
                        384
                    ],
                    "name": "block_8_expand_BN/moving_variance"
                }
            ]
        },
        {
            "paths": [
                "group92-shard1of1"
            ],
            "weights": [
                {
                    "dtype": "float32",
                    "shape": [
                        1,
                        1,
                        384,
                        64
                    ],
                    "name": "block_8_project/kernel"
                }
            ]
        },
        {
            "paths": [
                "group93-shard1of1"
            ],
            "weights": [
                {
                    "dtype": "float32",
                    "shape": [
                        64
                    ],
                    "name": "block_8_project_BN/gamma"
                },
                {
                    "dtype": "float32",
                    "shape": [
                        64
                    ],
                    "name": "block_8_project_BN/beta"
                },
                {
                    "dtype": "float32",
                    "shape": [
                        64
                    ],
                    "name": "block_8_project_BN/moving_mean"
                },
                {
                    "dtype": "float32",
                    "shape": [
                        64
                    ],
                    "name": "block_8_project_BN/moving_variance"
                }
            ]
        },
        {
            "paths": [
                "group94-shard1of1"
            ],
            "weights": [
                {
                    "dtype": "float32",
                    "shape": [
                        3,
                        3,
                        384,
                        1
                    ],
                    "name": "block_9_depthwise/depthwise_kernel"
                }
            ]
        },
        {
            "paths": [
                "group95-shard1of1"
            ],
            "weights": [
                {
                    "dtype": "float32",
                    "shape": [
                        384
                    ],
                    "name": "block_9_depthwise_BN/gamma"
                },
                {
                    "dtype": "float32",
                    "shape": [
                        384
                    ],
                    "name": "block_9_depthwise_BN/beta"
                },
                {
                    "dtype": "float32",
                    "shape": [
                        384
                    ],
                    "name": "block_9_depthwise_BN/moving_mean"
                },
                {
                    "dtype": "float32",
                    "shape": [
                        384
                    ],
                    "name": "block_9_depthwise_BN/moving_variance"
                }
            ]
        },
        {
            "paths": [
                "group96-shard1of1"
            ],
            "weights": [
                {
                    "dtype": "float32",
                    "shape": [
                        1,
                        1,
                        64,
                        384
                    ],
                    "name": "block_9_expand/kernel"
                }
            ]
        },
        {
            "paths": [
                "group97-shard1of1"
            ],
            "weights": [
                {
                    "dtype": "float32",
                    "shape": [
                        384
                    ],
                    "name": "block_9_expand_BN/gamma"
                },
                {
                    "dtype": "float32",
                    "shape": [
                        384
                    ],
                    "name": "block_9_expand_BN/beta"
                },
                {
                    "dtype": "float32",
                    "shape": [
                        384
                    ],
                    "name": "block_9_expand_BN/moving_mean"
                },
                {
                    "dtype": "float32",
                    "shape": [
                        384
                    ],
                    "name": "block_9_expand_BN/moving_variance"
                }
            ]
        },
        {
            "paths": [
                "group98-shard1of1"
            ],
            "weights": [
                {
                    "dtype": "float32",
                    "shape": [
                        1,
                        1,
                        384,
                        64
                    ],
                    "name": "block_9_project/kernel"
                }
            ]
        },
        {
            "paths": [
                "group99-shard1of1"
            ],
            "weights": [
                {
                    "dtype": "float32",
                    "shape": [
                        64
                    ],
                    "name": "block_9_project_BN/gamma"
                },
                {
                    "dtype": "float32",
                    "shape": [
                        64
                    ],
                    "name": "block_9_project_BN/beta"
                },
                {
                    "dtype": "float32",
                    "shape": [
                        64
                    ],
                    "name": "block_9_project_BN/moving_mean"
                },
                {
                    "dtype": "float32",
                    "shape": [
                        64
                    ],
                    "name": "block_9_project_BN/moving_variance"
                }
            ]
        },
        {
            "paths": [
                "group100-shard1of1"
            ],
            "weights": [
                {
                    "dtype": "float32",
                    "shape": [
                        32
                    ],
                    "name": "bn_Conv1/gamma"
                },
                {
                    "dtype": "float32",
                    "shape": [
                        32
                    ],
                    "name": "bn_Conv1/beta"
                },
                {
                    "dtype": "float32",
                    "shape": [
                        32
                    ],
                    "name": "bn_Conv1/moving_mean"
                },
                {
                    "dtype": "float32",
                    "shape": [
                        32
                    ],
                    "name": "bn_Conv1/moving_variance"
                }
            ]
        },
        {
            "paths": [
                "group101-shard1of1"
            ],
            "weights": [
                {
                    "dtype": "float32",
                    "shape": [
                        128,
                        4
                    ],
                    "name": "classifier/kernel"
                },
                {
                    "dtype": "float32",
                    "shape": [
                        4
                    ],
                    "name": "classifier/bias"
                }
            ]
        },
        {
            "paths": [
                "group102-shard1of1"
            ],
            "weights": [
                {
                    "dtype": "float32",
                    "shape": [
                        3,
                        3,
                        32,
                        1
                    ],
                    "name": "expanded_conv_depthwise/depthwise_kernel"
                }
            ]
        },
        {
            "paths": [
                "group103-shard1of1"
            ],
            "weights": [
                {
                    "dtype": "float32",
                    "shape": [
                        32
                    ],
                    "name": "expanded_conv_depthwise_BN/gamma"
                },
                {
                    "dtype": "float32",
                    "shape": [
                        32
                    ],
                    "name": "expanded_conv_depthwise_BN/beta"
                },
                {
                    "dtype": "float32",
                    "shape": [
                        32
                    ],
                    "name": "expanded_conv_depthwise_BN/moving_mean"
                },
                {
                    "dtype": "float32",
                    "shape": [
                        32
                    ],
                    "name": "expanded_conv_depthwise_BN/moving_variance"
                }
            ]
        },
        {
            "paths": [
                "group104-shard1of1"
            ],
            "weights": [
                {
                    "dtype": "float32",
                    "shape": [
                        1,
                        1,
                        32,
                        16
                    ],
                    "name": "expanded_conv_project/kernel"
                }
            ]
        },
        {
            "paths": [
                "group105-shard1of1"
            ],
            "weights": [
                {
                    "dtype": "float32",
                    "shape": [
                        16
                    ],
                    "name": "expanded_conv_project_BN/gamma"
                },
                {
                    "dtype": "float32",
                    "shape": [
                        16
                    ],
                    "name": "expanded_conv_project_BN/beta"
                },
                {
                    "dtype": "float32",
                    "shape": [
                        16
                    ],
                    "name": "expanded_conv_project_BN/moving_mean"
                },
                {
                    "dtype": "float32",
                    "shape": [
                        16
                    ],
                    "name": "expanded_conv_project_BN/moving_variance"
                }
            ]
        },
        {
            "paths": [
                "group106-shard1of1"
            ],
            "weights": [
                {
                    "dtype": "float32",
                    "shape": [
                        1280,
                        128
                    ],
                    "name": "fc_final/kernel"
                },
                {
                    "dtype": "float32",
                    "shape": [
                        128
                    ],
                    "name": "fc_final/bias"
                }
            ]
        }
    ]
}